ultra96/weights_final/bias_0.npy (npy, 1152 bytes, 1 tensors)

array f4 [256]
0	0xba4487d3	-0.0007497046
1	0x3c827d64	0.015928932
2	0x3d56f02f	0.05247515
3	0x3cd82cc9	0.026388543
4	0x3b250d07	0.0025184767
5	0x3ca20be9	0.01978107
6	0x3ae763c6	0.0017653636
7	0xbc8cea48	-0.017201558
8	0x3c54cebf	0.012988745
9	0x3c4d26b1	0.012521432
10	0xbc7e5a37	-0.015524439
11	0x3d37f060	0.044906974
12	0xbc8cbbc6	-0.017179381
13	0xbab1a90c	-0.0013554408
14	0xbc79c9ff	-0.0152459135
15	0xbcd3c94d	-0.025852824
16	0x3d491208	0.04908946
17	0x3c2518e9	0.01007674
18	0x3c7e9029	0.0155373
19	0x3ca6f0e2	0.020378534
20	0x3d1c4b77	0.038157906
21	0xbc49d41a	-0.012318635
22	0x3d01acb0	0.03165883
23	0xbb21ecc6	-0.0024707778
24	0x3cf2b787	0.029628528
25	0x3d16dc29	0.036831055
26	0x3d49be53	0.049253773
27	0x3cd89730	0.02643928
28	0xbd2bd947	-0.04195526
29	0x3d795374	0.060870603
30	0x3c417671	0.011808024
31	0x3c407807	0.011747367
32	0x3d081f93	0.033233237
33	0x3c39743a	0.0113192145
34	0x3cd08660	0.0254547
35	0x3c9ea084	0.01936365
36	0xbbd21665	-0.006411361
37	0x3d80af70	0.06283462
38	0x3d0b86f7	0.03406426
39	0x3c5bf57e	0.013425229
40	0x3d156241	0.036470655
41	0x3d2a25d6	0.04153999
42	0x3d2ab3b8	0.0416753
43	0x3d92a095	0.07159535
44	0xb9c54032	-0.00037622597
45	0x3d269c0e	0.04067617
46	0x3cb4f080	0.022087336
47	0x3d07e7b5	0.033179957
48	0x3ccee4bc	0.025255553
49	0x3d6f95a9	0.058492336
50	0x3cfe9f18	0.031081721
51	0x3d49c2c2	0.049258
52	0x3c9ba280	0.018998384
53	0x3cd69369	0.026193338
54	0x3d0290f5	0.031876523
55	0x3d408b51	0.047007862
56	0x3ccb5e65	0.024825284
57	0x3cb2c42c	0.021822058
58	0x3c8eb72f	0.017421333
59	0x3d20d7f7	0.03926846
60	0x3cfc4a78	0.030797228
61	0xbd050bdf	-0.032482024
62	0x3bba930b	0.0056937984
63	0xba5c245f	-0.00083977537
64	0x3d505000	0.050857544
65	0x3c9e24c0	0.019304633
66	0x3d30311b	0.04301558
67	0x3d968733	0.07350006
68	0xbceedd8b	-0.029158374
69	0x3cceb182	0.025231127
70	0x3d124e2b	0.035719078
71	0xbb6aba4f	-0.0035816615
72	0x3cfd6c27	0.03093536
73	0xbc4426ec	-0.01197217
74	0x3d4b5951	0.049645726
75	0x3bb5d02e	0.0055484986
76	0xbb51c700	-0.0032009482
77	0x3cfe4371	0.031038018
78	0x3cbe5a92	0.023236547
79	0x3c1f0474	0.009705652
80	0x3cb9c9cb	0.02267923
81	0xbcbe9c65	-0.023267934
82	0x3be05ee5	0.00684725
83	0xbc28a5e2	-0.010293456
84	0xbc412e63	-0.011790845
85	0x3d19a7e0	0.037513614
86	0x3d8c5ea4	0.06853989
87	0x3c544c0b	0.012957583
88	0x3d3cca67	0.046091463
89	0x3d698d55	0.05701955
90	0xbd117c04	-0.03551866
91	0x3d30a5c4	0.043126836
92	0xbd12b57c	-0.03581761
93	0x39c821ae	0.00038172066
94	0x3c59573f	0.01326543
95	0x3d370d58	0.04469046
96	0x3d17fbd8	0.03710541
97	0xbd5eabf8	-0.05436322
98	0x3d93364f	0.07188093
99	0x3ce40083	0.027832275
100	0x3c80d5c3	0.01572693
101	0x3bf8c83a	0.0075922282
102	0x3d24e5f2	0.040258355
103	0x3d21bea9	0.03948847
104	0xbc2da89a	-0.01059928
105	0x3c6c46f8	0.014421217
106	0xbc644d4d	-0.013934446
107	0x3d05ac85	0.03263523
108	0x3d1e1ecc	0.03860359
109	0x3c0c57ee	0.008565886
110	0x3ce75cf3	0.028242564
111	0xbc3bac7e	-0.0114547
112	0x3c87adfa	0.01656245
113	0x3c3f7263	0.011684987
114	0x3c4dd087	0.012561924
115	0xb96c12f4	-0.00022513774
116	0x3c3de61b	0.011590506
117	0x3ceab3b7	0.028650148
118	0xbc70a8bc	-0.014688667
119	0x3d4e0067	0.050293352
120	0x3ca6809f	0.020325003
121	0x3d122c8e	0.035687022
122	0x3b22bbf1	0.002483126
123	0x3d4034d6	0.04692539
124	0xbd02ebfe	-0.03196334
125	0x3bbd9d20	0.005786553
126	0x3c9bd816	0.019023936
127	0xba841d82	-0.0010079595
128	0x3d1727cd	0.03690319
129	0x3d3710df	0.044693824
130	0xbbeb9615	-0.007189522
131	0xbc9954ee	-0.018717255
132	0x3cc96467	0.024584008
133	0x3dbfe5ec	0.09370026
134	0x3d543492	0.051807947
135	0x3d129513	0.0357867
136	0xbc8ef774	-0.01745198
137	0x3ca59b32	0.020215604
138	0xbcc66661	-0.02421874
139	0xbc7025d9	-0.014657461
140	0x3cb1d066	0.021705817
141	0x3b60709e	0.0034246813
142	0xbc4e400d	-0.012588513
143	0x3c45f843	0.012083116
144	0x3d3a96af	0.04555386
145	0x3cffe09a	0.031235028
146	0x3d461f42	0.048369654
147	0x3c96790d	0.018368268
148	0xbc0c3ac6	-0.008558935
149	0x3d1b55e2	0.0379237
150	0x3ce78667	0.02826233
151	0x3d3bb585	0.045827407
152	0x3d10030b	0.035159152
153	0xbcec3a4f	-0.028836397
154	0x3cc28948	0.023747101
155	0xbc5f27f7	-0.013620368
156	0xbcb403a2	-0.021974389
157	0x3cf5a335	0.02998505
158	0x3b11fd9a	0.0022276402
159	0x3c2a27cc	0.010385465
160	0xbbf2cce2	-0.007409678
161	0x3d2342bc	0.039858565
162	0x3c54859e	0.01297131
163	0x3d027bc4	0.031856313
164	0x3d2234e1	0.03960121
165	0x3c39db97	0.011343858
166	0xbc84a1dd	-0.016190464
167	0x3d3f9587	0.04677346
168	0x3ae6c8e9	0.0017607483
169	0x3d84bee8	0.06481725
170	0x3d0f6d9e	0.03501665
171	0x3bf2ad4f	0.007405914
172	0xbc8274a7	-0.015924765
173	0x3cc72463	0.024309343
174	0x3d90ce92	0.0707065
175	0x3d38f0a4	0.045151368
176	0x3cdfd5bc	0.027323596
177	0xbc37dc90	-0.01122202
178	0x3c94c6c0	0.018161178
179	0x3caf5cda	0.02140658
180	0xbc242792	-0.0100192
181	0x3d0fb785	0.035087127
182	0x3c799d1e	0.015235214
183	0x3d048a27	0.032358315
184	0x3bc1df7a	0.005916533
185	0x3d2e1cd7	0.042507973
186	0xbd0a16d3	-0.033713173
187	0x3ccc4473	0.024934983
188	0x3ce80bcc	0.028325938
189	0x3cdb29f7	0.026753409
190	0xba1e462f	-0.000603768
191	0x3d106d45	0.035260458
192	0x3d3f4f26	0.04670634
193	0x3d1cd901	0.03829289
194	0x3d08c62f	0.033392128
195	0x3d4d9f39	0.050200675
196	0x3d2d4a51	0.0423072
197	0x3cc5c95a	0.024143863
198	0x3c9299f3	0.017895674
199	0x3ccc03a4	0.02490408
200	0x3d026907	0.031838443
201	0x3caf62fb	0.021409502
202	0x3cf2d566	0.029642772
203	0x3d0e97a3	0.03481258
204	0xbcf8c365	-0.030366609
205	0x3d46a5d3	0.048497986
206	0x3cc7d821	0.02439505
207	0x3b655d8c	0.0034998385
208	0xbcf1dc9b	-0.029524138
209	0x3d79965a	0.060934402
210	0x3d156709	0.036475215
211	0x3d060059	0.032715175
212	0xbd73d323	-0.059527528
213	0x3d41c689	0.04730848
214	0xbd64c9e5	-0.055856604
215	0x3c6ccae0	0.014452666
216	0xbcc7abd3	-0.024373924
217	0x3cfafde3	0.03063864
218	0x3cafde10	0.021468192
219	0x3cb63a08	0.022244468
220	0xbc9090de	-0.017647203
221	0x3d49392b	0.049126785
222	0x3c83ab48	0.016072884
223	0x3d2affcb	0.04174785
224	0xbd1601fb	-0.036622982
225	0x3c8b2601	0.016985895
226	0x3d02df2e	0.031951122
227	0x3d382d3e	0.04496502
228	0x3be8659a	0.00709219
229	0x3d01d258	0.03169474
230	0x3cef3587	0.029200329
231	0x3d252006	0.040313743
232	0xbb3b912f	-0.0028620472
233	0xbc0c71cc	-0.008572053
234	0xbb49d2f4	-0.0030795904
235	0x3c29c6a4	0.010362301
236	0xbb602ec1	-0.0034207555
237	0xbc1aea47	-0.00945527
238	0xbc916b63	-0.017751401
239	0x3c52e503	0.012871983
240	0x3c59a749	0.013284513
241	0xbb441200	-0.0029917955
242	0x3c2481ac	0.010040682
243	0x3d1543a0	0.036441445
244	0x3c94480f	0.018100766
245	0xbc932334	-0.017961122
246	0x3d3ae434	0.045627788
247	0xbabe8960	-0.001453679
248	0x3ca0d9c8	0.019635096
249	0x3ad98de2	0.001659807
250	0xbc611c16	-0.013739606
251	0xbc94728a	-0.018121023
252	0x3ccb558d	0.024821067
253	0x3d33f95b	0.043938976
254	0x3c904697	0.017611785
255	0x3d0ca45d	0.034336437
