ultra96/weights_final/bias_2.npy (npy, 640 bytes, 1 tensors)

array f4 [128]
-0.009256834 0.014056968 -0.0007151864 0.027647996 -0.012579031 -0.00062661973 -0.010246241 0.0036032666
0.022017939 0.035335083 0.010719867 0.021844158 0.0008281593 0.017364006 0.020359091 0.005320427
0.033313733 -0.032909177 0.009153686 0.04855328 0.0109059205 0.018952504 0.0035255235 0.014458036
0.0029490225 0.020530563 -0.0046557044 0.0357795 0.018867617 -0.005578983 0.032139655 0.008026947
0.02111641 0.0021188552 0.0143950395 0.007992453 0.011037869 -0.01504644 -0.013135589 0.011071559
-0.015955323 0.028840754 -0.0045763548 0.001958315 0.015002744 0.004959939 -0.0052973754 0.01386152
0.023059547 0.019397674 -0.010242337 -0.0027718723 0.0054881335 0.02462801 0.02004607 0.015044649
0.027965918 0.032936707 0.009671353 -0.0030715328 0.04895428 0.03163517 0.022250604 0.001259065
0.011470998 -0.011610885 -0.012609387 0.0049537956 0.00513066 0.009343923 0.020781424 -0.015492126
-0.024792543 0.01865933 0.03744191 0.018558089 0.011116009 0.014548262 0.013797308 0.015453788
-0.009763744 0.028274715 0.011938546 0.018070292 -0.007931382 0.01138242 0.004098254 0.029160043
0.011720796 0.012237904 0.015860483 -0.012293733 0.010616792 0.00411717 0.037182897 -0.008893649
0.01633699 0.022588212 -0.008996689 0.018836789 -0.010622568 0.020155426 -0.0013780303 0.015487333
0.024760293 -0.0060312967 -0.0062986743 0.010624128 0.035587117 0.021672152 0.014776603 0.036160663
-0.00082810584 0.050382975 -0.009035302 0.03869965 -0.0030824114 6.7322995e-05 -0.010046076 0.04607659
0.0032924623 0.02194396 0.0035698768 0.005856837 -0.0085087055 -0.0199177 0.0013958664 -0.017851109
00000000: faa9 17bc 324f 663c 597b 3bba 0d7e e23c
00000010: 4818 4ebc bd43 24ba dadf 27bc c824 6c3b
00000020: f75e b43c 85bb 103d 62a2 2f3c 85f2 b23c
00000030: d418 593a f63e 8e3c 1cc8 a63c fa56 ae3b
00000040: fb73 083d c6cb 06bd 58f9 153c cedf 463d
00000050: bfae 323c 4842 9b3c 780c 673b 66e1 6c3c
00000060: 6344 413b b62f a83c e18e 98bb 868d 123d
00000070: 4390 9a3c e7cf b6bb dfa4 033d 7583 033c
00000080: 52fc ac3c 7edc 0a3b 2cd9 6b3c c7f2 023c
00000090: 2ed8 343c 5885 76bc a736 57bc 7c65 353c
000000a0: bdb4 82bc 7243 ec3c 3ff5 95bb 1357 003b
000000b0: 12ce 753c fc86 a23b 9b95 adbb 6e1b 633c
000000c0: 60e7 bc3c dfe7 9e3c 7acf 27bc 4da8 35bb
000000d0: cdd5 b33b aec0 c93c a837 a43c d57d 763c
000000e0: c818 e53c a4e8 063d 9874 1e3c c54b 49bb
000000f0: 4884 483d e193 013d e646 b63c 3607 a53a
00000100: daf0 3b3c 953b 3ebc 9a97 4ebc 7353 a23b
00000110: 181f a83b 4117 193c ce3d aa3c b0d2 7dbc
00000120: bb19 cbbc 74db 983c b05c 193d 2207 983c
00000130: ec1f 363c d55b 6e3c 1b0e 623c e331 7d3c
00000140: 1cf8 1fbc 60a0 e73c e499 433c 2608 943c
00000150: a1f2 01bc 547d 3a3c a54a 863b 0be1 ee3c
00000160: 9508 403c 7d81 483c d8ed 813c a76b 49bc
00000170: 0ef2 2d3c 53e9 863b 184d 183d abb6 11bc
00000180: 27d5 853c ea0a b93c d966 13bc 9c4f 9a3c
00000190: 480a 2ebc fe1c a53c 069f b4ba 95be 7d3c
000001a0: 19d6 ca3c 2fa2 c5bb 1c65 cebb d310 2e3c
000001b0: ccc3 113d cc89 b13c 9119 723c 341d 143d
000001c0: 3e15 59ba 615e 4e3d ce08 14bc 8683 1e3d
000001d0: 4802 4abb c22f 8d38 4c98 24bc ceba 3c3d
000001e0: 5ac6 573b d2c3 b33c 98f4 693b b6ea bf3b
000001f0: 1968 0bbc 722a a3bc 81f5 b63a 7d3c 92bc
