ultra96/weights_final/bias_3.npy (npy, 640 bytes, 1 tensors)

array f4 [128]
0	0x3c9b3edf	0.018950878
1	0x3c69de71	0.014274226
2	0xbb67b415	-0.003535514
3	0x3ccc6cf2	0.024954293
4	0x3cd0e618	0.025500342
5	0x3ce564e2	0.028002206
6	0x3ce0c8dc	0.027439527
7	0x3b772f7c	0.0037717512
8	0x3c34b2a6	0.011028921
9	0x3d238e62	0.03993071
10	0x3cc2b097	0.023765845
11	0x3cf1ff0f	0.029540567
12	0x3d134fed	0.035964895
13	0x3d34b7fc	0.044120774
14	0x3ca9e47d	0.020738835
15	0xbc783af5	-0.015150775
16	0x3d050991	0.032479826
17	0x3c256de8	0.0100970045
18	0x3c02c96d	0.007982594
19	0x3b735927	0.0037131996
20	0x3cc1c2b8	0.02365242
21	0xbc62d298	-0.013844155
22	0xbc817dc5	-0.015807042
23	0xbaf30903	-0.0018542114
24	0xbc208448	-0.009797163
25	0x3c65a3c2	0.014016094
26	0x3c650ce5	0.013980125
27	0x3b25410e	0.0025215778
28	0x3d074a39	0.03302977
29	0xb9bceb2d	-0.00036033374
30	0x3ca895aa	0.020579178
31	0xbae828b6	-0.0017712328
32	0x3b804bde	0.003915294
33	0x3c888a95	0.016667644
34	0x3bad6729	0.0052918387
35	0x3c2ad869	0.010427573
36	0x3ccf508d	0.025306964
37	0xbbab01b7	-0.0052187103
38	0xbbaa320e	-0.0051939553
39	0x3c93dc6d	0.018049443
40	0xbbf56285	-0.007488551
41	0xbb9d277a	-0.0047959657
42	0xbb027832	-0.0019908068
43	0xbb30751b	-0.002692527
44	0xbc5b61a5	-0.0133899795
45	0x3cf00b3b	0.02930223
46	0xbb6f9757	-0.0036558711
47	0xbc0d9805	-0.008642201
48	0x3cba5b7f	0.022748707
49	0x3d01c497	0.031681623
50	0x3cd7eeff	0.02635908
51	0xbaada736	-0.0013248685
52	0xbc17221c	-0.009224441
53	0x3c81640b	0.015794775
54	0x00000000	0.0
55	0xbc4bbd37	-0.012435249
56	0x3d07e92c	0.033181354
57	0x3c706dce	0.014674617
58	0x3cabb496	0.020960134
59	0x3c96c15e	0.018402752
60	0x3cd80407	0.026369108
61	0x3bccbd3f	0.006248146
62	0x39ca1a5f	0.0003854809
63	0xbc31fbad	-0.010863227
64	0xbc569401	-0.01309681
65	0x3ce28835	0.02765284
66	0x3cc448a1	0.023960413
67	0x3ceca2be	0.028886195
68	0xbb09a9a0	-0.0021005645
69	0xbc312033	-0.0108109
70	0xbc56b5bc	-0.013104852
71	0xbc69c8bc	-0.01426905
72	0x3ca5b622	0.02022845
73	0x3d2cb25e	0.04216229
74	0x3a712632	0.0009199112
75	0x3babd576	0.0052439524
76	0x3ccb82b2	0.024842594
77	0xbc9151e3	-0.017739242
78	0xbc5d82a3	-0.013519916
79	0xbcdceafa	-0.026967514
80	0x3cfe7163	0.031059926
81	0xbc8ca6d0	-0.017169386
82	0xbc0ce788	-0.008600123
83	0x3a8b56e2	0.0010630751
84	0x3bdc24ad	0.0067182393
85	0xbc8c8933	-0.017155265
86	0xbc2c5d8d	-0.010520351
87	0xbb837b57	-0.004012506
88	0x3d0a8842	0.03382135
89	0xbb92a9c0	-0.004475802
90	0xbc87860b	-0.016543409
91	0x3c970570	0.01843521
92	0x3d1a2d5d	0.037640918
93	0x3c41fb49	0.011839696
94	0x3c818282	0.015809301
95	0x390ad27c	0.00013239117
96	0xbc229138	-0.009922318
97	0x3ce3bd55	0.027800241
98	0x3ce67125	0.028130123
99	0xba3cc008	-0.0007200246
100	0xb9ec6adb	-0.0004509304
101	0x00000000	0.0
102	0x3b61b1c0	0.0034438223
103	0xbc300709	-0.010743865
104	0x3d1cdf88	0.038299114
105	0x3ca419a5	0.02003176
106	0xb8ba9268	-8.8964414e-05
107	0xbc0a6a7c	-0.008448239
108	0x3b6b582b	0.0035910707
109	0x3cb82789	0.02247979
110	0x3c1df952	0.009641962
111	0x3b553950	0.0032535382
112	0x3cb78e3e	0.022406694
113	0x3ca00f71	0.019538613
114	0x3b500699	0.0031742214
115	0xbca1005c	-0.019653492
116	0xbcb26053	-0.021774447
117	0x3b4fe338	0.0031721126
118	0xbbb2e660	-0.0054595917
119	0x3c7f909a	0.015598441
120	0x3d0b4b7b	0.03400753
121	0x00000000	0.0
122	0xbbd1f463	-0.006407307
123	0x3c9aaedc	0.018882208
124	0x3b50cd50	0.0031860657
125	0xbcd6a6fa	-0.026202668
126	0x3ab63587	0.001390145
127	0xbbf24447	-0.007393393
