ultra96/weights_final/weight_3.npy (npy, 65664 bytes, 1 tensors)

array f4 [128, 128]
0.031793907 0.14537397 -0.047989167 -0.15119049 -0.0058200825 0.12140914 -0.04549004 0.0716813
-0.09329746 -0.16700046 -0.079591446 -0.11312925 -0.04440964 -0.012600172 0.06246035 -0.09655242
-0.05147389 -0.14400977 -0.06914029 0.04334925 -0.0018789297 -0.16764708 -0.08511533 -0.030585747
-0.07358363 -0.08706813 -0.05514395 0.15838599 -0.03133531 0.08688339 0.012802264 0.1020331
0.09198824 -0.07849758 -0.06388761 0.06097812 0.05878602 -0.02212473 0.010032232 0.19817528
-0.0028559263 0.04117312 0.04694385 0.05291513 0.13553412 -0.0809654 0.010874839 -0.05488575
-0.075422876 0.003587048 0.097814634 -0.05208982 -0.0954408 0.12092777 0.1094961 -0.13158317
-0.10322396 -0.07946148 -0.15280895 -0.12245789 0.085229576 -0.062500305 -0.11789471 -0.12778658
0.1403121 -0.075847134 0.088306084 -0.063351996 -0.056291953 0.07412155 -0.120401025 -0.0955498
0.122848034 0.02942572 -0.093433015 0.004470084 -0.09776631 -0.117412284 -0.07334909 -0.052238032
-0.15218046 0.09422956 0.13123177 0.10653428 -0.064990826 -0.1041464 0.031035613 -0.094866425
0.18934253 -0.063866146 0.031336136 0.14387766 0.09391611 -0.06263192 0.17514184 0.1930044
0.09479924 -0.06843676 -0.10084617 0.061319895 0.06991843 -0.0994297 0.18361884 0.063630745
-0.06045651 -0.12330492 0.0248862 0.044987652 0.07029496 -0.057782575 0.014130078 0.21859828
0.012057405 -0.05313031 -0.1274332 -0.10548557 -0.04949842 0.09146394 0.05760315 -0.084910475
-0.017890802 0.080460906 0.19527853 0.06556188 0.011068866 -0.18078847 -0.0815092 0.08660987
-0.018816113 0.15280826 -0.13769278 0.17350179 0.08851433 0.0044009103 0.00043163332 -0.15230533
-0.0022056266 0.08264717 0.18180186 -0.06198185 0.10220181 0.14004087 -0.050360713 0.18349464
0.1493857 -0.12172185 0.103280835 0.10763936 0.16004303 -0.009297089 0.15877719 0.16105038
0.05784585 -0.011165889 0.020804478 0.08486142 -0.13777862 0.030726206 0.07254145 0.081348926
-0.022053258 -0.12487355 -0.017965272 -0.10131821 0.01650007 0.16151652 -0.057538103 -0.07136385
0.0033351986 -0.06824275 -0.009424291 0.080753066 -0.09498188 0.029818183 0.01935999 0.095006816
0.07418741 -0.12532742 -0.14251886 -0.14199954 -0.015388046 -0.12891795 0.0482728 0.11224734
0.14439018 -0.024764294 -0.07500898 -0.10695434 -0.06693784 -0.010945747 0.08603213 0.11769119
0.123680554 0.10029614 -0.12039239 -0.061615538 0.030018883 0.1737159 -0.025200473 0.12780091
0.19880472 0.081738725 0.1527014 -0.11228386 0.004194859 -0.07909102 -0.07493598 -0.12553568
-0.093093194 0.15147178 0.13933319 0.019308092 0.16485964 -0.062172987 -0.10432225 0.041034233
-0.09211692 -0.0018668157 -0.10664352 0.17269355 0.17721057 0.055961154 0.05526716 0.14223966
-0.11732243 0.16510049 -0.08677075 -0.017127696 0.1188594 0.08334903 0.06626469 0.1715367
0.023584506 0.039774213 0.05365393 0.0129066855 -0.055938832 0.007778264 0.15673682 0.05998594
0.04599928 -0.10011072 0.10503484 -0.0083476575 -0.13810976 0.034996465 -0.070906065 -0.0055415034
0.13687712 0.061049644 0.17103611 0.10453387 0.091974154 0.067478366 -0.09485533 0.05553701
00000000: 543a 023d eadc 143e 4a90 44bd aed1 1abe
00000010: 64b6 bebb 5ba5 f83d c453 3abd a5cd 923d
00000020: bd12 bfbd 2b02 2bbe d700 a3bd 4fb0 e7bd
00000030: e2e6 35bd f470 4ebc 6dd6 7f3d 46bd c5bd
00000040: 49d6 52bd 4c77 13be 6d99 8dbd fc8e 313d
00000050: 6b46 f6ba adab 2bbe f250 aebd f68e fabc
00000060: 04b3 96bd c750 b2bd 9fde 61bd f02f 223e
00000070: 7459 00bd ebef b13d 96c0 513c bbf6 d03d
00000080: 5564 bc3d 57c3 a0bd 82d7 82bd 31c4 793d
00000090: 9cc9 703d ec3e b5bc 3b5e 243c 76ee 4a3e
000000a0: 7e2a 3bbb 25a5 283d 3248 403d 89bd 583d
000000b0: 75c9 0a3e 30d1 a5bd 612c 323c e1cf 60bd
000000c0: 4f77 9abd ae14 6b3b 0a53 c83d 235c 55bd
000000d0: 7776 c3bd fba8 f73d 7e3f e03d bdbd 06be
000000e0: 1567 d3bd b3bc a2bd f379 1cbe 34cb fabd
000000f0: d88c ae3d 2900 80bd c872 f1bd 7cda 02be
00000100: faad 0f3e be55 9bbd d2d9 b43d b1be 81bd
00000110: 6492 66bd 0acd 973d d094 f6bd 9daf c3bd
00000120: c097 fb3d 350e f13c cf59 bfbd c879 923b
00000130: b439 c8bd da75 f0bd 0c38 96bd 8cf7 55bd
00000140: 32d5 1bbe 6dfb c03d 9f61 063e a52e da3d
00000150: e919 85bd b54a d5bd 663e fe3c 5449 c2bd
00000160: 02e3 413e 41cc 82bd 525a 003d aa54 133e
00000170: 1757 c03d 2a45 80bd 6258 333e f2a2 453e
00000180: 1b26 c23d 9228 8cbd 7088 cebd 922a 7b3d
00000190: 6531 8f3d cca1 cbbd 9406 3c3e d650 823d
000001a0: 3fa1 77bd 4a87 fcbd 25de cb3c f944 383d
000001b0: cef6 8f3d 6cad 6cbd d881 673c 3ad8 5f3e
000001c0: 6c8c 453c 2b9f 59bd d97d 02be d208 d8bd
000001d0: dbbe 4abd 7251 bb3d 48f1 6b3d 8be5 adbd
000001e0: bb8f 92bc b0c8 a43d 18f7 473e 4f45 863d
000001f0: 305a 353c 9d20 39be 4cee a6bd 8460 b13d
00000200: 4024 9abc c579 1c3e 56ff 0cbe 74aa 313e
00000210: 0047 b53d 8335 903b d84c e239 eef5 1bbe
00000220: 468c 10bb eb42 a93d 442a 3a3e aee0 7dbd
00000230: 2f4f d13d e066 0f3e 0947 4ebd 05e6 3b3e
00000240: 91f8 183e 4e49 f9bd e784 d33d 0672 dc3d
00000250: 52e2 233e d152 18bc 7d96 223e 64ea 243e
00000260: c5ef 6c3d 22f1 36bc 276e aa3c d3cb ad3d
00000270: d715 0dbe 86b5 fb3c 9d90 943d 449a a63d
00000280: 09a9 b4bc b4bd ffbd e82b 93bc ec7f cfbd
00000290: 282b 873c 9664 253e 13ad 6bbd 3627 92bd
000002a0: 5993 5a3b dbc2 8bbd 5768 1abc dd61 a53d
000002b0: dc85 c2bd 4345 f43c d798 9e3c ef92 c23d
000002c0: 92ef 973d d555 00be 77f0 11be 5468 11be
000002d0: 251e 7cbc 1103 04be b3b9 453d efe1 e53d
000002e0: 05db 133e 7dde cabc 4f9e 99bd e10a dbbd
000002f0: b516 89bd ca55 33bc 9d31 b03d 1408 f13d
00000300: 3b4c fd3d 1068 cd3d 4990 f6bd 9360 7cbd
00000310: 29ea f53c 95e2 313e 3971 cebc 3ede 023e
00000320: 7793 4b3e a266 a73d c15d 1c3e 15f5 e5bd
00000330: 0775 893b 79fa a1bd 0978 99bd 6d8c 00be
00000340: a5a7 bebd 6b1b 1b3e 5cad 0e3e 012c 9e3c
00000350: f7d0 283e 1aa9 7ebd e7a6 d5bd 8313 283d
00000360: cca7 bcbd f1af f4ba eb67 dabd 94d6 303e
00000370: b076 353e 8637 653d d15f 623d 46a7 113e
00000380: be46 f0bd 1a10 293e ddb4 b1bd 624f 8cbc
00000390: 8f6c f33d e5b2 aa3d c8b5 873d 51a7 2f3e
000003a0: 4b34 c13c 49ea 223d 39c4 5b3d 9076 533c
000003b0: 1e20 65bd cfe0 fe3b 9e7f 203e d1b3 753d
000003c0: be69 3c3d d906 cdbd 821c d73d 9dc4 08bc
000003d0: a56c 0dbe 7458 0f3d 3337 91bd 8095 b5bb
000003e0: 8429 0c3e 310f 7a3d 1724 2f3e db15 d63d
000003f0: f25c bc3d 1932 8a3d 8343 c2bd c77a 633d
