ultra96/weights_pos_sat_40_mav_10_stat/weight_2.npy (npy, 4224 bytes, 1 tensors)

array f4 [32, 32]
000000 25 57 74 3e da 58 59 3e 19 fa ae 3e 52 70 5f 3e
       0.23861368 0.212253 0.34175184 0.2182019
000010 fe 57 b8 bb 13 6e 6d 3c c5 15 7f bc eb c7 28 3e
       -0.005625724 0.014491576 -0.015569155 0.16482513
000020 01 9e 99 3e 8f 08 be 3d 29 9b 2d 3e 2c 9e 1b 3e
       0.3000336 0.09278976 0.1695372 0.15197057
000030 64 b9 f8 bd cc 08 79 be a5 e7 34 3d 50 50 b9 bd
       -0.121447355 -0.24319762 0.044166226 -0.090485215
000040 b8 16 1f 3e fd 95 cc 3d 68 08 19 3e 51 6e ab 3d
       0.1553601 0.099895455 0.14944613 0.083706506
000050 7d 81 8f 3e a4 7f c2 bc ab 62 b2 bd b3 0f 10 3e
       0.2802848 -0.023742504 -0.08710226 0.14068489
000060 1e 11 3f 3e ee de 9f 3e e3 2d 3b 3e 27 47 06 3e
       0.18658873 0.3122477 0.18279223 0.1311308
000070 38 cb 8e 3e 2f a2 06 be f8 fa 5f 3e bd 11 9b 3d
       0.2788942 -0.13147806 0.2187308 0.07571743
000080 ed 89 8f bd 20 86 09 3c 50 1e 97 3d 26 ca 05 be
       -0.07008729 0.008393794 0.073788285 -0.13065395
000090 2f 60 bb 3d a8 e8 16 3e 35 e0 2e 3d 57 f9 c9 bd
       0.09149205 0.14737189 0.04269429 -0.09862011
0000a0 48 5e f8 3c 18 1f 69 be 89 c2 87 3e db cb 5f 3d
       0.030318394 -0.22765768 0.26515606 0.05463777
0000b0 5a 62 3a 3d 16 0c 4d 3e d9 f9 6e be f1 ce 60 3e
       0.04550395 0.20024142 -0.23337497 0.21953942
0000c0 00 a3 51 be 0c f3 9c bd 75 2a 81 be 76 0e 1d be
       -0.20472336 -0.07663545 -0.25227705 -0.15337548
0000d0 dc ad 45 be df 8d f7 bd d9 69 f1 bd 4f e9 8f bd
       -0.19304603 -0.12087607 -0.11787767 -0.07026922
0000e0 eb ce be 3d 7d e1 ad 3d 53 4b a8 bd 86 34 1b 3e
       0.0931681 0.08490274 -0.08217492 0.15156755
0000f0 66 c2 47 be 77 f2 9f bd b1 d8 90 3e 88 2d 1f 3e
       -0.19507751 -0.078099184 0.28290322 0.15544713
000100 33 00 9f 3d d6 07 14 3e b2 a9 5e 3e 76 39 9c be
       0.0776371 0.14456114 0.21744421 -0.3051259
000110 f8 ab 57 be 81 11 62 3d de aa 85 be d7 10 97 3e
       -0.21061695 0.055192474 -0.26106924 0.29505035
000120 a1 63 b8 3d 09 a8 1d be 5b b0 8d bd c1 48 c8 3c
       0.09003378 -0.15396132 -0.06918403 0.024448754
000130 e3 7f 75 bb c4 66 79 3e e0 6f 9b be 64 d6 6b be
       -0.003746026 0.24355608 -0.3035879 -0.23031002
000140 78 b2 41 3e af 71 61 3e 0e bd 5e 3e 15 0b b7 3d
       0.18915737 0.22016023 0.21751806 0.089376606
000150 26 0d 53 be ab 18 5a 3e 0c 64 33 3e d4 e9 51 3e
       -0.20610484 0.21298473 0.17518634 0.20499355
000160 69 e9 5e 3e cb 7d 84 bc 80 58 c6 3d 80 37 93 3d
       0.21768726 -0.016173264 0.09684849 0.0718832
000170 a5 64 af 3e e0 e4 48 bd cd 4c 5f 3e 78 49 9a bd
       0.34256473 -0.049046397 0.21806641 -0.07533544
000180 83 2a 79 3e e5 7b ee 3d e5 c7 84 3e ce 9f f7 bd
       0.24332623 0.11644725 0.25933757 -0.12091027
000190 da 93 ea 3d c9 1a 75 3d b3 c5 7c 3e d9 b7 a4 3e
       0.11453982 0.059839997 0.24684791 0.32171515
0001a0 c6 ea bc 3b 74 4e 08 3e 44 46 99 be 5f 11 85 3d
       0.005765292 0.13311177 -0.2993642 0.06497454
0001b0 91 81 69 bd 80 91 8b 3d 3b 8f 24 be fb c7 48 3d
       -0.05700833 0.06814861 -0.16070263 0.04901884
0001c0 fd 12 9c bc 8a b8 6e be 37 df 54 3e 73 78 87 3e
       -0.019052023 -0.23312584 0.20788275 0.26459083
0001d0 da 62 74 bd 8c 21 46 be 36 7c 6d bd 1b e9 80 be
       -0.059664585 -0.19348735 -0.057979785 -0.25177845
0001e0 dc d7 1b 3e f2 13 06 be e2 ed 5c bd 22 9a 82 3e
       0.15219063 -0.13093546 -0.0539378 0.2550822
0001f0 94 81 81 3e ce 87 89 3e 2c ac 06 3e bc b3 65 3d
       0.25294173 0.26861423 0.13151616 0.05607961
000200 36 ae 93 be ba e0 fc 3d b4 bb 17 3e 22 aa 18 be
       -0.2884385 0.12347551 0.14817697 -0.1490865
000210 79 d1 e9 3d 69 ba 23 3e f3 61 8d bd 04 2c 8f 3e
       0.11416907 0.15989079 -0.06903448 0.2796327
000220 23 17 6d 3e c3 f5 01 be 4c 4e aa be 10 aa af 3e
       0.23153357 -0.12691407 -0.3326286 0.34309435
000230 d8 3a d8 bd e5 18 a6 3e e1 93 53 3e 2c 94 a3 3d
       -0.105580986 0.32440868 0.2066188 0.07987246
000240 f9 9b 9e 3d b2 44 aa bd 30 01 b7 3e 25 d7 83 bd
       0.07744593 -0.08313884 0.35743093 -0.0643752
000250 b5 ed cc 3d ae 9c b8 be 31 bb c0 3d b2 11 e7 bd
       0.100062765 -0.36057037 0.09410704 -0.11282672
000260 0e b5 8f 3d 57 aa 9f 3e 4c 03 b1 3e 7b c1 51 3e
       0.07016955 0.31184646 0.34572828 0.20483963
000270 43 05 c8 3e de d2 ba be f5 51 ee bd d8 51 a3 3c
       0.39066514 -0.36489004 -0.11636726 0.019936487
000280 bd 39 14 be da 50 36 be d9 07 61 be e9 45 9a 3d
       -0.1447515 -0.1780428 -0.2197565 0.075328656
000290 3a 95 ec bc 51 0a 73 3e 41 60 b7 bd 43 ea 02 3e
       -0.02887975 0.23734404 -0.08953906 0.12784676
0002a0 c0 b2 58 bd da 49 a3 bd 14 82 94 3e 3b 59 48 3c
       -0.052904844 -0.079730704 0.29005492 0.012228305
0002b0 5c 73 de 3e 4b 3c 7f 3e a4 53 4c be c7 35 de 3e
       0.43447387 0.24925344 -0.19953781 0.43400404
0002c0 c3 5d 26 3e 20 e8 97 3e bd 46 7e be ee c5 7b bc
       0.16246705 0.29669285 -0.24831672 -0.015367014
0002d0 41 18 c3 be 13 0b 65 3e 97 71 25 be 16 ad be 3e
       -0.38104442 0.22367506 -0.16156612 0.3724143
0002e0 92 30 1f be 74 9d ff bd 3c 1f 85 bc c5 b9 4e 3e
       -0.15545872 -0.12481204 -0.016250245 0.20188053
0002f0 32 fe 3f 3b 4b d4 9d 3e 70 e5 e5 3d 95 7d 60 be
       0.00292958 0.3082603 0.11225402 -0.21922906
000300 20 9c 17 3e 2e 5b 69 bd 53 57 50 bc bb e4 a6 3e
       0.1480565 -0.05697172 -0.012716132 0.32596382
000310 39 1d 03 3e a1 91 ae bd 09 64 95 be 0e 48 36 bd
       0.12804116 -0.0852387 -0.29177883 -0.04450231
000320 8b dd 7c bd d8 3f 14 3e 89 49 7a be 9f 27 6c 3e
       -0.061734717 0.1447748 -0.24442114 0.23061989
000330 fe 5d 43 be 49 d1 61 be 95 a5 80 bd 5f 64 9d 3d
       -0.19078824 -0.22052492 -0.06281582 0.0768516
000340 01 c8 61 3e c8 50 c5 bd 3c 0a 3b be 28 8e 2d 3e
       0.22048952 -0.096345484 -0.18265623 0.1694876
000350 4d 45 55 3c 18 2f 9f be 53 a0 b7 3e 75 1f c5 bd
       0.013017011 -0.31090617 0.35864505 -0.096251406
000360 bc 08 b5 bd 1e e8 96 ba ce 0d ac 3e fe 92 b5 bd
       -0.088395566 -0.0011513268 0.33604282 -0.08865927
000370 14 60 7a 3e 95 91 4e be ef 47 59 3e de 42 b8 3e
       0.24450713 -0.20172723 0.21218847 0.35988516
000380 ef a5 80 be 80 20 71 bd 22 cd d7 3e 24 24 db 3b
       -0.25126597 -0.058868885 0.4214869 0.006687658
000390 d1 cf b8 3e 6b dd 6d be 20 23 63 3d 2a 15 8e be
       0.3609605 -0.23228996 0.05545342 -0.27750522
0003a0 89 dc bb bd bb 0f e3 be 20 e0 13 3c 0a cd b3 3e
       -0.09172923 -0.4434794 0.0090256035 0.3511737
0003b0 ab 59 7a 3d 0f 33 92 be a6 be c0 be 2e 9b c1 bd
       0.06112067 -0.2855458 -0.37645453 -0.09453426
0003c0 eb 5a 8a 3e b8 2d 94 be 63 2a 4e 3e b2 62 f8 bd
       0.2702249 -0.2894113 0.20133357 -0.121282
0003d0 95 ca ae bd 7b 71 85 3d 19 78 5e 3d 2a 6e 02 3d
       -0.08534733 0.06515785 0.054313753 0.031843342
0003e0 e5 a2 af be cc 68 45 be 4a c4 8e 3e 13 9d b4 be
       -0.34303966 -0.19278258 0.27884132 -0.35276088
0003f0 17 0a df bd 5b 10 4b 3e 3a 5d 25 3b 0d e0 35 3e
       -0.10890596 0.19830458 0.002523257 0.1776125
