ultra96/weights_pos_sat_40_mav_10_stat/weight_0.npy (npy, 12928 bytes, 1 tensors)

array f4 [100, 32]
000000 c3 8c 1b be 6e d5 0a 3e ec ff 86 3d 89 21 d4 3d
       -0.15190415 0.1355798 0.06591782 0.10357959
000010 c1 41 39 3b 2f 90 05 bd ec 65 68 be b5 ef 37 3e
       0.0028267952 -0.032608207 -0.2269513 0.17962535
000020 f0 83 07 3c b6 88 15 3e bf af 04 be 14 c6 8b 3d
       0.008271202 0.14602932 -0.12957667 0.0682489
000030 6b 55 e8 3d 4b 29 6d 3e bb 74 2a be 39 fd a9 bc
       0.11344417 0.23160283 -0.16646092 -0.020750629
000040 63 49 91 bd 37 27 21 be 5d 52 24 3e 19 53 5b 3d
       -0.070940755 -0.15737616 0.16047044 0.053546045
000050 59 78 5d 3d f3 51 03 3e 14 3b ea 3d 62 fc 70 3e
       0.05406985 0.1282423 0.114370495 0.23533776
000060 19 86 3a be 0a 7e 50 be 6d 70 bb 3d 99 80 da 3d
       -0.18215217 -0.2036058 0.09152303 0.10669059
000070 8f fb 36 be 51 4c df bd 2d ac 2c 3d c5 54 78 3e
       -0.178694 -0.10903228 0.042156387 0.24251087
000080 0c c1 c0 3d c3 fc ad bd 8d e2 99 bd 53 f6 d7 bd
       0.09411821 -0.08495476 -0.07513914 -0.105450295
000090 49 2c 4e 3e a1 e9 68 bd 2a f8 58 bd ee 3e a6 bc
       0.20134081 -0.05686343 -0.052971043 -0.02029368
0000a0 d0 23 89 bd f2 24 07 3e 2d 6b 4b be c6 c0 37 be
       -0.06696284 0.13197687 -0.19865103 -0.17944631
0000b0 0e 46 a9 bc fd 80 c5 3d b5 70 3b 3e 7c aa 2d be
       -0.020663287 0.09643743 0.18304713 -0.16959566
0000c0 19 30 5d 3b 27 86 27 3e 0b 85 3a 3e 74 f4 32 3e
       0.0033750592 0.16359769 0.18214814 0.17476064
0000d0 d0 be c0 bd b6 ff 32 3e 3e ce ea 3d 4a 86 87 bc
       -0.094113946 0.17480358 0.11465119 -0.016543526
0000e0 8a 0c bc 3d 91 83 bf 3d 81 39 06 3e 19 75 b7 bd
       0.09182079 0.09351266 0.13107873 -0.089578815
0000f0 bb fe c1 3c 68 ef 31 be 35 36 0b bc 21 bf 4c 3e
       0.023681035 -0.17376482 -0.008496811 0.19994785
000100 5f 84 39 3e a0 72 57 be 3a ae 45 bc ee 19 b1 bd
       0.18116902 -0.2103982 -0.012065465 -0.08647524
000110 d3 db 1d be ac b2 53 bc 65 31 1a 3e b0 e2 1b be
       -0.15415888 -0.012921017 0.15057905 -0.15223193
000120 e2 2c 26 3e 8f d3 5b 3d 0a 35 23 3e 83 ca 6e 3d
       0.16228059 0.053668555 0.15938202 0.0582986
000130 80 98 33 3d cd 33 69 bd d6 22 28 be 48 9b 2d 3e
       0.043846607 -0.056934167 -0.16419539 0.16953766
000140 69 72 70 3c e1 82 81 be 1e 7e 40 3d e2 07 80 be
       0.014675715 -0.25295165 0.046995275 -0.25006014
000150 7b c8 80 3d ac 56 00 3d 73 6b 85 3e 81 02 2f 3e
       0.062882386 0.031332657 0.2605854 0.17090799
000160 54 49 4d be 32 1c 3f be f5 32 e0 3d 09 10 bf 3d
       -0.20047504 -0.186631 0.10947219 0.0932923
000170 a0 76 b5 ba f4 6e 34 3e 4d 4c 2a 3d 60 8f 91 bb
       -0.0013844557 0.1762045 0.041576672 -0.0044421405
000180 ac 36 43 3d ae 3a b2 bd 00 10 a7 bd 29 da 6d bd
       0.04765956 -0.087025985 -0.08157349 -0.058069382
000190 a6 7d ba bd 63 c3 35 3c bd 9b 29 3e 79 4c bf 3d
       -0.09105997 0.011093947 0.16563316 0.09340758
0001a0 c3 04 01 be 88 0a 43 3e 01 b3 c9 3d 48 25 fa bd
       -0.12599473 0.19046986 0.098485954 -0.12214142
0001b0 63 c5 bc bd cb 07 6b 3d 04 51 03 be 43 b8 14 be
       -0.09217336 0.05738048 -0.12823874 -0.14523415
0001c0 20 58 90 bd 28 7f 12 bd ba f5 f3 3d 4a c4 63 be
       -0.070480585 -0.035765797 0.11912103 -0.22242847
0001d0 74 4e fe bd 77 4c 6f 3d b1 72 95 3d 79 0d 63 be
       -0.124173075 0.058422532 0.07297266 -0.22173108
0001e0 3f f4 02 be 2b 38 51 3e 07 f3 20 be 55 e0 01 be
       -0.12788485 0.20431583 -0.15717708 -0.12683232
0001f0 40 7b d1 bd 96 9a 55 3e 6d 25 8f be d7 f8 6e 3e
       -0.10228586 0.20859751 -0.2795824 0.23337112
000200 71 25 44 3e ea 13 0e be 75 c2 90 be 72 77 e6 bd
       0.19154908 -0.13874784 -0.2827336 -0.11253251
000210 78 9e 03 3e 51 e6 24 be 73 54 79 3d 81 8d 2c be
       0.1285342 -0.16103484 0.060871553 -0.16850854
000220 29 d9 34 3e a7 29 20 3e 5d 1e 34 3e d8 db 73 3e
       0.17660965 0.15640889 0.17589708 0.23814332
000230 55 b7 5e be c3 54 42 3d 2e 03 5a 3e 7c a9 3d be
       -0.21749623 0.047444116 0.21290275 -0.18521684
000240 37 2f 94 3d 8d 3b 0d 3e f3 38 2b be 7b 1d 03 be
       0.07235568 0.13792248 -0.16720943 -0.12804215
000250 49 45 e3 bc 8b 4a 70 be 95 49 e0 3d 9b 3f 32 3d
       -0.027742999 -0.23465936 0.10951535 0.04351769
000260 13 fc a8 3d 4c 02 28 3e 1a ec a2 bc 85 0a 96 3b
       0.08251204 0.16407126 -0.019887973 0.0045788907
000270 84 21 18 3e fa 27 44 3e 0e ce a2 b9 e6 6e 3f 3e
       0.14856535 0.19155875 -0.0003105257 0.18694648
000280 61 1b 02 bd a9 6e 50 be 17 69 7d 3d 6a ce c8 bd
       -0.03176439 -0.20354713 0.0618678 -0.09804995
000290 d5 02 56 3d c1 c7 8b 3d d2 79 4e 3d 2b a2 a1 3a
       0.052248795 0.068252094 0.050409146 0.0012331655
0002a0 c1 cc 62 bd a8 8d 93 3d f5 8d f3 3b 31 54 01 3d
       -0.05537105 0.07204753 0.007432694 0.03157443
0002b0 78 b6 0a be 00 77 d8 3d 29 a7 0d 3d 6e 76 5b 3e
       -0.13546169 0.105695724 0.034583244 0.21431896
0002c0 e2 16 a0 3c 90 57 4c be 93 2a 76 bd a6 f5 f0 3d
       0.019542161 -0.19955277 -0.060099196 0.11765604
0002d0 72 ae a0 bb 4c 42 cc 3d bd 14 8f bc a0 b1 4e 3e
       -0.004903608 0.099735826 -0.017465943 0.20184946
0002e0 a7 e2 85 3d 8f 03 63 bd 55 db 82 bd eb 88 05 be
       0.06537371 -0.055423316 -0.063894905 -0.13040511
0002f0 05 f1 3f 3e 21 7f c6 3d 7b ad a9 3d 40 14 da 3b
       0.18744285 0.09692217 0.08285042 0.006655246
000300 e2 d7 3b be 3f 27 ca bc bf fd 26 be a2 74 c2 3c
       -0.18344072 -0.024676917 -0.16307734 0.023737255
000310 59 a9 25 3e f1 4c 69 be 4c 30 9d bd a5 09 b5 bd
       0.16177882 -0.22783257 -0.076752275 -0.0883973
000320 44 3c a1 bd a9 fc c7 3d 46 7b b3 3d d4 65 14 3e
       -0.07872823 0.09764988 0.08763747 0.1449197
000330 bb c8 29 3e 7d 75 2f bb 34 7e 75 3d fb 39 59 bc
       0.16580479 -0.002677291 0.05993481 -0.0132584525
000340 8e 7c 30 be e1 27 1b bd 6e 39 cb 3d 04 19 17 bd
       -0.17235014 -0.03787983 0.09923063 -0.03688909
000350 46 1a e5 3d a1 39 0d be f5 00 25 3e 37 32 b4 3d
       0.11186652 -0.13791515 0.16113646 0.0879864
000360 11 7d 1e bc ec ec 95 bd f1 3d 4f be 2c d1 dd ba
       -0.009673373 -0.0732058 -0.20238473 -0.00169233
000370 13 2c 2c 3c 66 87 d4 bd 44 c9 6b bd 89 d6 b2 bd
       0.010508555 -0.10377388 -0.05756499 -0.087323256
000380 6c cc 7c 3e 4d aa 00 3e d4 5e 0e be e1 71 89 3d
       0.24687356 0.12564965 -0.13903362 0.06711174
000390 61 05 bc bd 63 b3 c0 bd c0 7f d4 3d a8 5c 79 be
       -0.091807134 -0.09409215 0.10375929 -0.24351752
0003a0 27 58 99 bd fd 5a 02 be de d0 be bd 09 b3 3f 3e
       -0.07487517 -0.12730022 -0.09317182 0.1872064
0003b0 73 57 59 be 92 5a 17 3e a2 64 25 3e 87 d2 a5 3d
       -0.21224765 0.14780644 0.1615167 0.080967955
0003c0 d2 29 b0 3d 15 a3 25 3e fc a8 02 bd 05 b4 27 be
       0.086017266 0.16175492 -0.031899437 -0.16377266
0003d0 39 09 63 3e d9 f7 02 be 4f c0 82 3d 07 5f b6 3d
       0.22171487 -0.12789859 0.06384336 0.08904844
0003e0 d9 da a7 bc 03 91 cd bd d6 af 0c 3e fd 95 d7 bd
       -0.020490097 -0.100374244 0.13738951 -0.10526655
0003f0 e8 fd 5b 3e 59 63 29 3e 88 b2 3b be 95 a7 2a be
       0.21483576 0.16541804 -0.18329823 -0.1666549
