ultra96/weights_pos_sat_40_mav_10_stat/weight_3.npy (npy, 512 bytes, 1 tensors)

array f4 [32, 3]
000000 fb 03 9c be d5 a1 99 3e fa 68 38 be 45 36 9a 3e
       -0.30471787 0.3000628 -0.18008795 0.3011953
000010 bc 8d 5b 3d df 78 89 bd c1 a1 ae be a1 1f b7 3e
       0.053601965 -0.067125075 -0.34107783 0.35766318
000020 9b 43 8b 3e 88 b8 52 3e 08 8f fd 3e e4 32 2b be
       0.27200016 0.20578206 0.49523187 -0.16718632
000030 49 bf ac 3e 0b 56 ef 3e e6 cb af be f6 e5 3b 3e
       0.3373969 0.46745333 -0.3433525 0.18349442
000040 74 97 9b be d0 d0 a1 3d 10 80 6a 3e fc 82 88 3b
       -0.30388987 0.07901156 0.22900414 0.004166005
000050 06 aa 78 3e 34 37 14 be 76 ca 94 bd ea 69 cf 3d
       0.24283609 -0.14474183 -0.07265179 0.101276234
000060 a8 90 ec 3e ea 71 da be c5 37 ae 3c 50 5f 83 bd
       0.46204114 -0.42665035 0.021266827 -0.06414664
000070 cc 2b c4 bd 3f 46 a9 3e 0f 1f d9 3e b9 fd 95 be
       -0.09578666 0.33061406 0.42406508 -0.29295138
000080 3d e6 1c be b0 0a c6 be 44 60 4b be c3 eb 68 be
       -0.15322204 -0.3868003 -0.19860941 -0.22746186
000090 cc fa a4 3e 95 11 56 be 19 d3 c7 3e ec f7 20 3d
       0.32222593 -0.20905145 0.39028242 0.039298937
0000a0 aa 52 e1 be 37 9b a2 be ba 9b e3 3e 3b d3 42 bd
       -0.4400838 -0.31759045 0.44454747 -0.047564726
0000b0 ff 72 ed be 2d 72 1a 3f d7 b8 a1 be 5c 0f fb 3d
       -0.46376798 0.6033047 -0.31586334 0.12258789
0000c0 0d c5 ed be 78 d6 04 3f f1 c6 48 be 6d 14 e5 3e
       -0.464394 0.51889753 -0.1960714 0.44742146
0000d0 e6 36 0a bf 2b e3 85 3e 0e 4d c5 be d6 05 5d bc
       -0.5399002 0.26149878 -0.3853535 -0.013490161
0000e0 b9 4f eb 3e ad c8 ee 3d 94 02 f6 be 5b 2c 5a be
       0.4595926 0.116593696 -0.48048842 -0.21305983
0000f0 98 66 96 bd 34 91 ff 3e b4 1c 14 3d dc 13 25 3e
       -0.07343787 0.4991547 0.036160186 0.16120857
000100 14 98 1e be c0 6a f2 be 6a c1 5e be 75 3c c0 3c
       -0.154877 -0.4734707 -0.21753469 0.023466328
000110 4a f9 c4 be 71 0c 83 be 78 e5 d9 be 17 80 ff be
       -0.38471442 -0.2559543 -0.42557883 -0.49902412
000120 98 84 6d 3e e9 e4 3e be 3a 3f 10 3e 64 6d 85 be
       0.23195112 -0.1864201 0.14086619 -0.2606002
000130 8b f8 5e 3d 85 77 8e 3e 47 7e c2 be ba 72 a0 bd
       0.054436248 0.2782556 -0.37986967 -0.07834382
000140 b0 f9 6d 3e 26 58 79 be 25 e9 c7 be 2a 67 a1 3e
       0.2323978 -0.24350032 -0.39045063 0.3152402
000150 ff 80 c2 be bb 61 e9 bc 41 a5 83 bd da 94 32 3e
       -0.3798904 -0.028488984 -0.06428004 0.17439595
000160 8f 61 8f be e5 61 b0 bd 17 d3 9c 3e 2d 51 37 3e
       -0.2800412 -0.08612422 0.306298 0.1790206
000170 7f fd 89 be e9 d3 ab be 10 84 98 3e f9 df d8 be
       -0.26951215 -0.33560112 0.29788256 -0.42358378
