ultra96/weights_3dance/weight_3.npy (npy, 512 bytes, 1 tensors)

array f4 [32, 3]
00000000: 2cfa abbe 7ad9 13bd 9931 143f 3ee6 1b3d
00000010: 00e1 1cbe 691b 09bf a3c9 c13e 16a0 f6bd
00000020: 88de 0c3e 3bb4 983e 0739 d13e ca31 84be
00000030: 404f 123f da75 bbbe f39c 803e 6c41 1dbf
00000040: 4580 bb3e de26 e93e 8724 ab3c 3637 02bf
00000050: b74a edbd 35c9 8fbc b2aa 383e d128 03bf
00000060: 9d67 913c f897 933e e7a9 35be ea74 763e
00000070: 4e49 a2be ab85 80bd 70f0 993d 92ca 993c
00000080: f83b fabe b460 ba3e 2c59 883e 43e1 d6bd
00000090: ec07 febe bf0c 713e 5581 f0be 1257 09be
000000a0: 208a f73e 3cd6 75bd 2c6b e03e 24aa b6be
000000b0: f191 8dbe e749 033e f79f 713d 1805 fcbd
000000c0: 9228 7cbe d0e7 1dbe 75e7 3a3e 26db e53d
000000d0: 9b62 7b3e 722b 2fbe 5b3c 2bbe 62a4 de3e
000000e0: 1fee 02bf 440d 8a3d d627 a23e 8078 88be
000000f0: cd78 c23d 1d15 0cbd 6d97 e3be e327 e1be
00000100: 026a af3d f07c e7bc b175 b53e 0186 0bbf
00000110: d532 a4be 7531 733c a8bf 9bbe b261 a13e
00000120: aade b93b d810 82be 6e5b e93e be10 643e
00000130: 956e f7be cdf9 833e c1e4 d2be 376d 8d3d
00000140: 8fd0 9d3c 9211 8abe 502b 59be 0a21 0b3f
00000150: 34bb 923d 454a 82bd 95b6 95be 5be2 94be
00000160: 1183 ed3e 6262 d4be 3e37 993e 2ba8 12bf
00000170: 5621 86be 45db 0fbe f26b bf3e afb6 273e
-0.33589303 -0.036096074 0.5788818 0.038061373 -0.15320206 -0.5355745 0.3784915 -0.12042253
0.13756764 0.29825005 0.4086382 -0.25819236 0.57152176 -0.3661335 0.25119743 -0.6142795
0.366213 0.45537466 0.020891441 -0.50865495 -0.11586516 -0.017551998 0.18033865 -0.51234156
0.017749602 0.2882688 -0.17740594 0.24068037 -0.31696552 -0.06275495 0.07516563 0.01877335
-0.48873878 0.36401904 0.26630533 -0.10492184 -0.4961542 0.23540018 -0.46973673 -0.13412121
0.4834757 -0.060018763 0.43831766 -0.35676682 -0.27650407 0.1282116 0.058990445 -0.12305659
-0.24624851 -0.1542046 0.18252356 0.1122344 0.24549334 -0.17106417 -0.16722243 0.4348479
-0.51144594 0.067408115 0.31671017 -0.26654434 0.09495697 -0.034199823 -0.44451466 -0.43975744
0.08565141 -0.028257817 0.35441354 -0.5450135 -0.32070032 0.014843334 -0.3041966 0.31519848
0.0056722956 -0.25403476 0.45577568 0.22272012 -0.48326555 0.2577652 -0.4119015 0.06905597
0.019264488 -0.2696653 -0.21207929 0.5434729 0.071646124 -0.06361822 -0.29240862 -0.29078946
0.46389058 -0.4148131 0.2992496 -0.57287854 -0.26197308 -0.14048488 0.37387043 0.16378282
