ultra96/weights_3dance/weight_0.npy (npy, 12928 bytes, 1 tensors)

array f4 [100, 32]
0	0x3e045c8a	0.12925926
1	0x3c87d34a	0.016580243
2	0xbdd6923a	-0.10477109
3	0x3e3e2bdb	0.18571417
4	0xbde09a33	-0.10966911
5	0x3dda2754	0.106520325
6	0xbd75038d	-0.05981784
7	0xbdeeb8ca	-0.116563395
8	0xbe61f161	-0.22064735
9	0xbd6a2371	-0.057162706
10	0x3e8a8a74	0.27058756
11	0x3e25c095	0.16186745
12	0xbe39a0d1	-0.18127753
13	0xbe2fb239	-0.1715783
14	0x3e206dbe	0.15666863
15	0x3dffd8cf	0.12492525
16	0x3dd64a7a	0.10463424
17	0x3c3c7c78	0.011504285
18	0x3c9ab482	0.018884901
19	0xbe021eaa	-0.1270701
20	0x3e24bbd8	0.16087282
21	0xbddacec1	-0.106839664
22	0xbe33a074	-0.17541677
23	0xbdef3a82	-0.11681081
24	0x3e1deae2	0.15421632
25	0x3da8084e	0.08204709
26	0xbe1dde96	-0.15416941
27	0xbd33b563	-0.043874156
28	0xbe114f76	-0.14190468
29	0xbe810780	-0.25201035
30	0xbe49990e	-0.19687292
31	0xbda10d1a	-0.07863827
32	0x3e0eee22	0.13958028
33	0xbd6ad346	-0.057330392
34	0x3e43de17	0.1912769
35	0x3b94fd4c	0.004546797
36	0x3d770a7e	0.06031274
37	0x3de9cded	0.1141623
38	0xbd1bcad4	-0.03803523
39	0x3e85325c	0.26014984
40	0xbe3b674f	-0.18301128
41	0xbdb5b545	-0.08872465
42	0xbda00e29	-0.07815201
43	0xbd725694	-0.0591646
44	0x3d7bb50e	0.061451964
45	0x3c0a446c	0.008439165
46	0xbd0c176b	-0.03420202
47	0xbe17c020	-0.14819384
48	0x3e1da478	0.15394771
49	0xbe0c7467	-0.13716279
50	0xbddf8a0f	-0.109150045
51	0x3c3375f4	0.010953415
52	0xbe5a1cf1	-0.21300103
53	0x3e21ce91	0.15801455
54	0xbe21e7f5	-0.15811141
55	0xbe8b54c9	-0.27213123
56	0xbe31d235	-0.17365344
57	0x3d2f1edc	0.04275404
58	0xbd3a2d62	-0.045453437
59	0xbb99e28b	-0.0046961955
60	0x3db3d5ac	0.08780989
61	0xbdf206a9	-0.118176766
62	0x3e39b2e2	0.18134645
63	0x3e7741f8	0.24146259
64	0x3dcc0bae	0.09963165
65	0x3e48cd18	0.19609487
66	0xbde70180	-0.11279583
67	0xbdf8e8a3	-0.12153747
68	0x3e16c8ef	0.14725088
69	0x3e5eec1c	0.21769756
70	0xbd0fc354	-0.03509839
71	0xbd46f76b	-0.0485758
72	0xbdc1b1cd	-0.09457741
73	0xbe53eab9	-0.20695008
74	0x3df85412	0.1212541
75	0xbe659191	-0.2241881
76	0xbe1569ff	-0.14591216
77	0x3ce69083	0.02814508
78	0xbd7d9b7e	-0.061915867
79	0xbde49814	-0.11161819
80	0xbda99d05	-0.08281902
81	0x3d79bd50	0.060971558
82	0xbd12ff11	-0.03588778
83	0x3e0cb9d7	0.13742767
84	0xbe8a454b	-0.2700599
85	0x3e12e1a3	0.14343886
86	0xbdcd287b	-0.10017487
87	0xbe21c70f	-0.15798591
88	0x3d899b1e	0.067190394
89	0x3cff5d1e	0.031172331
90	0xbd98b66d	-0.0745667
91	0x3dc0959d	0.094035365
92	0xbd801350	-0.062536836
93	0x3e0ae6c1	0.13564588
94	0x3c198c8f	0.009371891
95	0xbdff5946	-0.124681994
96	0x3c0feb6a	0.008784154
97	0xbe49cc64	-0.19706875
98	0x3df0dfda	0.11761446
99	0xbcba24ae	-0.022722568
100	0x3d03dadf	0.032191154
101	0x3d53c250	0.051698983
102	0x3d78d247	0.06074741
103	0xbdfa9970	-0.12236297
104	0xbe7caf7d	-0.24676318
105	0xbc9ca895	-0.019123355
106	0x3e66db38	0.22544563
107	0xbdde738f	-0.10861885
108	0xbe5c6a49	-0.2152492
109	0xbe3937e3	-0.18087725
110	0xbdafe871	-0.085892566
111	0xbe947cc8	-0.2900145
112	0x3c4b4abc	0.012407955
113	0x3e1b2438	0.15150535
114	0x3d80b336	0.06284182
115	0x3dfd60da	0.123719886
116	0x3e3d477a	0.18484297
117	0xbe167b34	-0.14695436
118	0x3d26bac1	0.040705446
119	0xbcd850f8	-0.026405796
120	0xbcd19ca6	-0.025587391
121	0x3dbd2f50	0.0923754
122	0xbc01f827	-0.007932699
123	0xbcddf459	-0.027094053
124	0x3d84274f	0.0645281
125	0x3db8cfc4	0.09024003
126	0xbd9bd928	-0.07609779
127	0x3e718629	0.23586334
128	0xbdfa6365	-0.12225989
129	0xbde0bc47	-0.10973411
130	0xbe44e3d2	-0.19227532
131	0xbcac8ccd	-0.021063233
132	0x3e06b140	0.13153553
133	0x3c05d7aa	0.008169094
134	0x3e091498	0.13386762
135	0x3d21063c	0.039312586
136	0x3e9cd12c	0.30628335
137	0x3c974e44	0.018469937
138	0x3e57cbef	0.21073888
139	0xbe12a357	-0.14320122
140	0x3e929dbc	0.28635967
141	0xbe820dde	-0.25401205
142	0x3df243e0	0.118293524
143	0x3d0eacc2	0.034832723
144	0xbdee4750	-0.116346955
145	0xbc8a9157	-0.016915007
146	0x3e0a0bfa	0.13481131
147	0xbe01e34c	-0.12684363
148	0x3e782d63	0.24236064
149	0xbdef9bfc	-0.116996735
150	0xbe8ce7eb	-0.2752069
151	0xbe317107	-0.17328273
152	0xbb3d8bb5	-0.0028922383
153	0xbe5e65a8	-0.21718466
154	0xbe1a783e	-0.15084931
155	0xbe1c7479	-0.15278806
156	0x3d662a12	0.056192465
157	0xbc79caee	-0.015246136
158	0x3d3853de	0.045001857
159	0x3cef29a1	0.029194655
160	0x3dfb3b3d	0.12267158
161	0x3e9f4e3a	0.3111437
162	0x3d7845ee	0.060613565
163	0x3e33bf3b	0.17553417
164	0xbb6b3b48	-0.0035893489
165	0x3e0a89de	0.13529155
166	0xbd61e9c7	-0.055154588
167	0xbd762524	-0.060094014
168	0x3cb941d1	0.022614392
169	0xbaebcc3a	-0.0017989941
170	0x3e3948ed	0.18094225
171	0xbd531613	-0.051534723
172	0x3ca3a28a	0.019974966
173	0x3d8ffd73	0.070307635
174	0x3d954be0	0.07289863
175	0x3c4537f1	0.012037263
176	0xbe68f8a1	-0.22751094
177	0x3d9b2230	0.0757488
178	0xbe2068a1	-0.15664913
179	0xbe23dac9	-0.16001429
180	0xbd351e1b	-0.044218164
181	0xbe945cbf	-0.2897701
182	0x3e3a436e	0.18189785
183	0xbcfdaac1	-0.03096521
184	0x3cabf34b	0.020990035
185	0x3e1d8d35	0.15385897
186	0xbc8acea9	-0.016944246
187	0x3cdd453a	0.027010549
188	0xbe61c283	-0.22046857
189	0x3b754c84	0.003742964
190	0xbe7ef706	-0.2489892
191	0x3ca0e402	0.019639973
192	0x3d0e5f41	0.03475881
193	0xbd7c8dca	-0.061658658
194	0x3d83445f	0.06409525
195	0xbe80eee3	-0.25182256
196	0x3d391270	0.0451836
197	0xbe4609ac	-0.19339627
198	0x3e7ab416	0.2448276
199	0x3c9e0915	0.01929144
200	0xbb4941a4	-0.003070929
201	0x3cb6bd83	0.022307163
202	0x3de3a172	0.111147776
203	0xbda8d416	-0.08243577
204	0x3d6e7c8c	0.058224246
205	0x3cc053b4	0.023477413
206	0x3d74dc0c	0.059780166
207	0xbdec9fdf	-0.115539305
208	0x3e2d339b	0.16914217
209	0x3d7fbdac	0.062436745
210	0xbe1ebb6c	-0.15501183
211	0xbe0f04c7	-0.13966666
212	0x3d5db631	0.05412883
213	0xbe95242c	-0.2912916
214	0x3de1c2db	0.11023494
215	0xbd6daa8b	-0.05802397
216	0x3e2b1e37	0.16710745
217	0x3b192167	0.0023365857
218	0x3c34e75b	0.011041488
219	0xbe4ab244	-0.19794565
220	0xbe0509f9	-0.12992086
221	0xbe0c75cb	-0.1371681
222	0x3e0bc227	0.13648282
223	0x3e5462c6	0.20740804
224	0x3d47680b	0.048683207
225	0x3dd59ea6	0.104306504
226	0xbe58b34a	-0.21162143
227	0x3de73de1	0.11291099
228	0xbd410b8b	-0.04713015
229	0x3d19dc63	0.037563693
230	0xbd01efe0	-0.031722903
231	0xbda7c48d	-0.08191786
232	0x3e6408bb	0.22268955
233	0x3e88a235	0.26686254
234	0x3db6b843	0.08921864
235	0x3d8de375	0.069281496
236	0x3d447d36	0.047970973
237	0xbe6649d8	-0.22489107
238	0xbc171f56	-0.00922378
239	0xbe71ebcf	-0.2362511
240	0xbc6d7281	-0.014492632
241	0x3d9f908b	0.07791241
242	0x3e69981f	0.22811936
243	0x3dd524ca	0.104074076
244	0xbd8ab781	-0.06773282
245	0xbdc754d2	-0.09732975
246	0xbe2c591c	-0.16830868
247	0x3d29c483	0.041447174
248	0x3e3fea40	0.18741703
249	0xbe021e84	-0.12706953
250	0x3e05a3a6	0.13050708
251	0x3d9393b3	0.07205906
252	0xbe272431	-0.163224
253	0x3db2ac85	0.08724312
254	0x3db0155e	0.085978255
255	0xbcf96bbf	-0.030446885
