ultra96/weights_3dance/weight_2.npy (npy, 4224 bytes, 1 tensors)

array f4 [32, 32]
0	0xbe535437	-0.20637594
1	0x3e89dc8e	0.26926082
2	0x3ebc83c2	0.36819273
3	0xbd8a8af1	-0.06764782
4	0xbcb124c2	-0.021623973
5	0xbe9cc305	-0.30617538
6	0xbe7a15bb	-0.24422352
7	0x3ec77b25	0.3896114
8	0xbea1b15c	-0.31580627
9	0x3e369cd4	0.17833263
10	0x3dd47bdb	0.10375186
11	0x3ea8de58	0.32982135
12	0x3e8a0ab4	0.2696129
13	0x3e0e33dc	0.1388697
14	0x3e253be4	0.16136128
15	0xbdd9fc50	-0.10643828
16	0x3cc291dc	0.023751192
17	0x3ebf0a03	0.37312326
18	0xbdf090b4	-0.1174635
19	0x3e80e833	0.25177154
20	0x3ea8067a	0.3281744
21	0x3e51b818	0.20480382
22	0xbd0c9297	-0.034319486
23	0x3e364984	0.17801481
24	0xbe08e906	-0.13370141
25	0xbe34cf57	-0.17657219
26	0xbdd5fcd7	-0.10448616
27	0xbe9a7110	-0.30164385
28	0x3ed7c245	0.42140403
29	0x3ea6c028	0.3256848
30	0x3d3ac554	0.045598343
31	0xbe97ff92	-0.29687172
32	0x3e8b2ce6	0.27182692
33	0xbde61c31	-0.11235846
34	0x3c4899ac	0.0122436695
35	0xbe23ff89	-0.16015448
36	0xbc85b92a	-0.016323645
37	0x3e567f88	0.20947087
38	0x3e54d0fe	0.20782849
39	0xbeb57fa4	-0.35448945
40	0x3e2c7f57	0.16845451
41	0xbeb28fba	-0.3487528
42	0xbe8bbd07	-0.27292654
43	0xbe77113f	-0.24127673
44	0xbc827c7c	-0.0159285
45	0xbe134011	-0.14379908
46	0xbe0e9242	-0.1392298
47	0xbe2204f0	-0.15822196
48	0x3c143963	0.009046885
49	0xbdc26dda	-0.09493609
50	0xbe80e592	-0.25175148
51	0xbe0169e3	-0.12638049
52	0x3d6a79c9	0.05724505
53	0x3ea4d1ce	0.32191318
54	0xbea8eae8	-0.3299172
55	0x3e80bc6e	0.2514376
56	0x3d941d0b	0.07232102
57	0x3dae59c9	0.08513219
58	0xbdd19751	-0.102339394
59	0x3ec50bf4	0.38485682
60	0xbd6e5be7	-0.058193114
61	0xbe80db38	-0.2516725
62	0xbe745257	-0.23859535
63	0x3e62c874	0.2214678
64	0xbda4bb03	-0.08043482
65	0xbe0d0390	-0.1377089
66	0x3dccbde2	0.09997155
67	0x3d952f2c	0.07284388
68	0xbe81ef14	-0.25377715
69	0x3e58c4b9	0.21168794
70	0xbd81c5e4	-0.06336573
71	0xbdbb5cfa	-0.09148593
72	0x3e2d4fcc	0.16924971
73	0xbe826658	-0.25468707
74	0xbdf9d6ad	-0.12199149
75	0xbe65cc78	-0.2244128
76	0x3cde2cb8	0.027120933
77	0xbced79a1	-0.028988661
78	0x3df9ada3	0.12191322
79	0x3d8698d9	0.06572122
80	0x3d0b1271	0.033953134
81	0x3e696296	0.22791514
82	0x3e97cf18	0.29650187
83	0xbe362ad3	-0.17789774
84	0xbc9d22b6	-0.01918159
85	0x3ea1503d	0.3150653
86	0xbd9e7404	-0.07736972
87	0x3d16b354	0.036792114
88	0x3e8305da	0.25590402
89	0x3d896835	0.06709329
90	0x3e3c6428	0.18397582
91	0xbe938fbc	-0.28820598
92	0x3d771368	0.06032124
93	0xbe641f68	-0.22277606
94	0xbcb4fe03	-0.022093778
95	0x3dd144e1	0.10218216
96	0xbde1d2cf	-0.11026537
97	0xbc76c7dc	-0.015062299
98	0x3d78a295	0.060701925
99	0x3c837712	0.016047988
100	0xbd7f6642	-0.06235338
101	0x3d2cbd0b	0.042172473
102	0x3db1ce86	0.08681969
103	0x3d7c768d	0.061636496
104	0xbde73d3e	-0.11290978
105	0x3e1940a5	0.14966066
106	0xbdee76c5	-0.11643747
107	0x3d93d327	0.072180085
108	0x3c6c3718	0.014417432
109	0x3e76dd4d	0.24107857
110	0x3e583dce	0.21117327
111	0x3e4f25aa	0.20229211
112	0x3ec26fd1	0.37975934
113	0x3e3a1d45	0.18175228
114	0x3da21bfc	0.07915494
115	0x3d0ce025	0.03439345
116	0xbdb08e36	-0.086208746
117	0x3e1fa45f	0.15590046
118	0x3de727da	0.11286898
119	0x3e5ef1ee	0.21771976
120	0x3eb97c2d	0.3622755
121	0x3ea1c661	0.31596664
122	0x3de8d86e	0.11369406
123	0x3ece145d	0.4024991
124	0xbe870862	-0.26373583
125	0x3e9daab7	0.30794308
126	0xbd49b994	-0.049249247
127	0x3e4b897a	0.19876662
128	0xbe09060c	-0.13381213
129	0x3eba7f27	0.36425135
130	0x3e41f53d	0.18941207
131	0xbc138fec	-0.009006482
132	0xbea112b0	-0.3145957
133	0x3e264edb	0.16241018
134	0x3d4d36c2	0.05010105
135	0x3e99550a	0.29947692
136	0x3d808b08	0.06276518
137	0x3e8d45fe	0.27592462
138	0x3d6a8048	0.057251245
139	0x3bdda459	0.0067639765
140	0x3deb151c	0.11478636
141	0x3ddd65f9	0.10810465
142	0x3e0274eb	0.12739913
143	0x3e9487ea	0.29009944
144	0xbe46e4a4	-0.19423157
145	0x3e69c3d9	0.22828616
146	0xbc7a926c	-0.015293699
147	0x3e6f5693	0.23372869
148	0xbe54c9e7	-0.20780145
149	0x3e83ddc4	0.2575513
150	0xbd9839d1	-0.074329026
151	0xbe47b2c0	-0.19501781
152	0x3dbaa8d5	0.091142334
153	0x3ebc29a3	0.36750516
154	0x3e7a744c	0.24458426
155	0x3e82cd6a	0.25547343
156	0x3ec1bee1	0.37840942
157	0xbe4e1cdf	-0.20128201
158	0xbdfba849	-0.12287957
159	0x3e619b60	0.22031927
160	0x3da00d00	0.078149796
161	0x3e6166b3	0.22011833
162	0xbd44b4e6	-0.04802408
163	0xbcc869d7	-0.02446453
164	0xbebd5c10	-0.369843
165	0xbd96f5f6	-0.07371132
166	0x3e30238c	0.1720106
167	0x3e2a36cd	0.16622467
168	0xbdb73f2d	-0.08947597
169	0x3e3441b5	0.1760319
170	0x3de88c6c	0.11354908
171	0x3e5a95b1	0.21346165
172	0x3e381886	0.17978105
173	0xbe22a5f7	-0.15883623
174	0x3ed58636	0.41703957
175	0x3ee2d628	0.44304013
176	0xbea4e01f	-0.3220224
177	0x3d073b91	0.03301579
178	0xbd54c31e	-0.05194389
179	0x3eaa0f5b	0.3321484
180	0x3dd854ba	0.10563035
181	0xbe9c4f3b	-0.30529198
182	0xbddcd025	-0.10781888
183	0xbe224138	-0.15845191
184	0x3d97b6d0	0.074079156
185	0xbe0302ee	-0.12794086
186	0xbe366379	-0.17811383
187	0xbe2b6975	-0.16739447
188	0x3eecbb9b	0.46236882
189	0xbdef94ae	-0.1169828
190	0xbdff802b	-0.12475618
191	0xbe74df04	-0.23913199
192	0xbe8ff383	-0.28115472
193	0x3e7227f7	0.23648058
194	0x3e9b9459	0.30386618
195	0x3ea855b3	0.32877883
196	0xbdfec7cf	-0.12440454
197	0xbeadc9d9	-0.3394306
198	0x3e272ec5	0.16326435
199	0xbde10def	-0.10988986
200	0xbe061701	-0.13094713
201	0xbd961b76	-0.073294565
202	0xbe6624c1	-0.22474958
203	0xbc7652fd	-0.015034434
204	0xbe82eeb9	-0.25572756
205	0xbed3a1dc	-0.41334426
206	0x3eb6cf84	0.35705197
207	0x3e32c9c1	0.17459776
208	0x3cc4ed0b	0.024038812
209	0xbe2d6916	-0.16934618
210	0xbe61236f	-0.21986173
211	0x3e0ea404	0.13929754
212	0xbd813229	-0.063083954
213	0xbec30e24	-0.38096726
214	0xbe98ceca	-0.29845268
215	0xbdef9cbf	-0.11699819
216	0xbe603486	-0.21895036
217	0x3e49bea5	0.19701631
218	0xbc19a087	-0.009376652
219	0xbd69fca9	-0.05712572
220	0x3e43418d	0.19067974
221	0xbe8c6ddb	-0.27427563
222	0xbea543c2	-0.32278258
223	0x3df1a4c9	0.117990084
224	0x3ea9f00a	0.33190948
225	0xbd9fb237	-0.07797664
226	0x3e9ba052	0.30395752
227	0xbd58e392	-0.052951403
228	0xbda881ce	-0.08227883
229	0x3e2f8dd5	0.17143948
230	0x3e6ebcab	0.23314159
231	0xbe590fd1	-0.2119744
232	0xbe0a2ba1	-0.13493206
233	0x3e99c568	0.30033422
234	0xbdfc628d	-0.123234846
235	0x3e0ffe34	0.14061815
236	0x3e1d2a3a	0.1534814
237	0xbdc7f395	-0.097632565
238	0x3dce97ac	0.10087523
239	0xbd77d341	-0.0605042
240	0x3ed7783a	0.42083913
241	0x3e259058	0.16168344
242	0xbeaa83a5	-0.33303562
243	0xbec67045	-0.3875753
244	0x3d5a6d85	0.053327102
245	0xbe8d87d4	-0.2764269
246	0xbb726a52	-0.0036989641
247	0x3e8850b5	0.26624075
248	0x3edce28c	0.43141592
249	0x3e805dd4	0.25071585
250	0xbe5bf193	-0.21478872
251	0x3ebad810	0.36492968
252	0x3de93302	0.11386682
253	0x3d8b9586	0.06815629
254	0x3d58b157	0.0529035
255	0xbe31396e	-0.17307064
