ultra96/weights_3dance/weight_0.npy (npy, 12928 bytes, 1 tensors)

array f4 [100, 32]
0.06406617 0.15393978 0.11632108 -0.09240575 0.28630334 0.13868542 -0.14560516 0.093283325
-0.13234964 0.15971375 0.1347764 0.08893712 -0.1619734 0.00969639 -0.17225207 0.107047334
-0.26519147 -0.11468922 -0.2581041 0.03700718 -0.035279308 0.16427366 -0.050128654 -0.0056360993
0.13541414 -0.22709736 0.06628209 -0.2174687 0.0714807 0.06343233 -0.07734039 0.1201398
-0.22519095 -0.1402506 0.24728145 -0.01574434 -0.23948526 0.014934356 0.08514838 0.011808771
0.05062434 -0.042611465 0.05709626 -0.15868422 -0.07490501 0.15968761 -0.044602945 -0.024466507
0.06810789 0.16684374 -0.056297064 -0.118188106 0.0042437157 -0.17279626 0.16352437 0.2244019
0.16347797 -0.3084171 -0.16274525 0.10401972 0.14648631 -0.274487 0.26395953 0.2401628
0.21733434 -0.21858302 0.15253472 -0.12464406 0.12598981 0.09720473 -0.04085959 0.0499757
0.021142947 0.24082416 -0.28571388 0.21668646 -0.041650567 0.07935806 0.0069990326 0.063816085
0.020874286 0.020633895 0.06489009 0.10957185 0.2252666 -0.060005825 -0.14463651 -0.10286172
-0.15967387 -0.18501548 0.17407271 -0.108998895 -0.11303018 -0.27336824 0.067137875 -0.16226423
-0.17148043 -0.053958084 0.0911819 -0.030970091 0.0893823 -0.10200703 -0.01938646 0.026931612
0.17638414 -0.1629302 0.018899841 0.037800685 -0.23412266 0.050701153 0.18174872 0.11392738
-0.079641834 -0.19438459 -0.19782998 -0.0813517 -0.1039329 -0.1445328 0.14541246 0.16354162
0.064922266 -0.122182555 -0.02018898 0.07534848 0.03313417 0.14615399 -0.07922589 0.2193594
-0.13085265 0.04241081 0.18013598 -0.2613116 0.19163597 0.21917634 0.101276964 0.14746845
-0.07675623 -0.098787904 -0.25352263 0.18650582 0.118339114 0.022835046 0.078169614 -0.058517646
-0.27236104 0.08450113 -0.063880235 -0.09824006 -0.12829699 0.15084855 0.06725311 0.1244792
-0.084289365 -0.1559424 0.13452306 0.2648089 0.114120506 -0.07980712 0.16813058 -0.055702448
0.06715763 0.060240127 0.18985778 -0.20910531 -0.117097355 0.20486431 -0.099772856 0.18124424
0.2248859 0.39485225 -0.1109787 0.1429779 -0.1045424 -0.18166335 0.14974174 -0.23120482
-0.16542801 -0.050565332 0.24008168 -0.22757725 0.2379754 0.15420912 -0.010083004 0.3004619
0.08758785 -0.16879399 -0.22478326 0.10035595 -0.22818534 0.1203709 -0.21508187 -0.20376483
-0.2818236 0.17069133 0.09251569 0.08297472 -0.12527035 -0.09260368 0.22540729 0.041891363
0.099623375 -0.1776027 -0.06715766 -0.121318266 -0.1012433 0.051909767 -0.14133963 -0.09453448
0.060620386 -0.041266605 0.04189253 -0.108913295 -0.0711553 0.016387194 0.0048358035 -0.17294908
-0.07785072 -0.08140455 0.077136114 0.12938008 -0.13365069 0.16999477 -0.10751035 -0.14774522
0.1404873 0.30926642 -0.06871709 -0.027220631 0.22624072 -0.07285707 0.106124744 -0.16179724
0.19664626 0.19428797 0.00058174867 0.014404411 0.08409571 -0.094998635 -0.2562214 0.058718834
-0.06858722 0.047399674 0.10010004 0.051703908 -0.20313044 -0.0513279 0.15262277 0.0055714534
0.14691228 -0.18169916 0.05366229 0.064060576 -0.1099722 -0.044097986 0.0675203 0.08577281
00000000: 2035 833d 64a2 1d3e bf39 ee3d 3a3f bdbd
00000010: 5a96 923e 8d03 0e3e 8519 15be 540b bf3d
00000020: aa86 07be 008c 233e d302 0a3e aa24 b63d
00000030: 5bdc 25be 9bdd 1e3c d962 30be a23b db3d
00000040: 2dc7 87be 2fe2 eabd 3826 84be d794 173d
00000050: 0981 10bd 5b37 283e b453 4dbd 07af b8bb
00000060: 01aa 0a3e 368c 68be e8be 873d 1db0 5ebe
00000070: 7964 923d cfe8 813d a364 9ebd db0b f63d
00000080: 7598 66be da9d 0fbe 5937 7d3e 46fa 80bc
00000090: a03b 75be 3baf 743c 4662 ae3d 9379 413c
000000a0: 785b 4f3d 5c89 2ebd c5dd 693d 1e7e 22be
000000b0: cc67 99bd 2685 233e 94b1 36bd fc6d c8bc
000000c0: 267c 8b3d 16d9 2a3e c097 66bd 9b0c f2bd
000000d0: de0e 8b3b 81f1 30be ef72 273e 9dc9 653e
000000e0: c566 273e d9e8 9dbe b1a6 26be 4a08 d53d
000000f0: 8200 163e 8f89 8cbe b425 873e 3ded 753e
00000100: e58c 5e3e 3ad4 5fbe 1032 1c3e 6345 ffbd
00000110: 7903 013e 4613 c73d 635c 27bd 52b3 4c3d
00000120: f933 ad3c 9c9a 763e 1749 92be 0ee3 5d3e
00000130: c999 2abd 7b86 a23d 2458 e53b 02b2 823d
00000140: 8d00 ab3c 6a08 a93c 18e5 843d 3567 e03d
00000150: 4aac 663e abc8 75bd 981b 14be 2aa9 d2bd
00000160: 8c81 23be b374 3dbe 1e40 323e d03a dfbd
00000170: 5e7c e7bd ecf6 8bbe 957f 893d 9828 26be
00000180: 9198 2fbe 2703 5dbd 93bd ba3d fdb4 fdbc
00000190: 110e b73d 10e9 d0bd 5ad0 9ebc af9f dc3c
000001a0: 0b9e 343e 2dd7 26be d7d3 9a3c e4d4 1a3d
000001b0: dabd 6fbe 03ac 4f3d 561c 3a3e c252 e93d
000001c0: 421b a3bd c10c 47be f193 4abe b89b a6bd
000001d0: c6da d4bd 6800 14be 01e7 143e 7477 273e
000001e0: f7f5 843d d93a fabd 5c63 a5bc 4e50 9a3d
000001f0: b2b7 073d 64a9 153e 2f41 a2bd c09f 603e
00000200: 3dfe 05be f5b6 2d3d 9175 383e a2ca 85be
00000210: 383c 443e c36f 603e 4c6a cf3d f801 173e
00000220: 5f32 9dbd 5051 cabd b8cd 81be 62fb 3e3e
00000230: c75b f23d 9010 bb3c 6417 a03d 33b0 6fbd
00000240: e872 8bbe ee0e ad3d a4d3 82bd 1632 c9bd
00000250: 4960 03be 0b78 1a3e 00bc 893d f3ee fe3d
00000260: e79f acbd 5daf 1fbe 6ac0 093e 0895 873e
00000270: 03b8 e93d ea71 a3bd 6c2a 2c3e 4028 64bd
00000280: f189 893d 5abe 763d 146a 423e b41f 56be
00000290: bdd0 efbd f3c7 513e b655 ccbd 1798 393e
000002a0: 7d48 663e 132a ca3e cd48 e3bd cc68 123e
000002b0: 531a d6bd f505 3abe e655 193e f5c0 6cbe
000002c0: f665 29be 981d 4fbd f9d7 753e 030a 69be
000002d0: d3af 733e ffe8 1d3e 2f33 25bc 24d6 993e
000002e0: 4261 b33d 55d8 2cbe 952d 66be 6c87 cd3d
000002f0: 6ba9 69be 0585 f63d 6c3e 5cbe baa7 50be
00000300: 2f4b 90be b5c9 2e3e de78 bd3d a6ee a93d
00000310: df46 00be 00a7 bdbd 2bd1 663e 4796 2b3d
00000320: 5707 cc3d 7bdd 35be f589 89bd b675 f8bd
00000330: a658 cfbd 569f 543d 56bb 10be 4b9b c1bd
00000340: 154d 783d 2c07 29bd 8097 2b3d ef0d dfbd
00000350: dfb9 91bd 703e 863c a975 9e3b 9019 31be
00000360: 3370 9fbd 6eb7 a6bd 8af9 9d3d 367c 043e
00000370: badb 08be 1c13 2e3e 632e dcbd 864a 17be
00000380: e7db 0f3e 2b58 9e3e 8cbb 8cbd cdfd debc
00000390: a6ab 673e 1636 95bd ee57 d93d 2dae 25be
000003a0: a35d 493e 6df3 463e 7e80 183a 7b00 6c3c
000003b0: 5f3a ac3d a58e c2bd 742f 83be 2983 703d
000003c0: 7577 8cbd 2926 423d 4001 cd3d 7ac7 533d
000003d0: 6d01 50be 343d 52bd 2549 1c3e bd90 b63b
000003e0: 2c70 163e 580f 3abe fdcc 5b3d 3132 833d
000003f0: 1b39 e1bd 17a0 34bd 1548 8a3d a8a9 af3d
