ultra96/weights_3dance/weight_3.npy (npy, 512 bytes, 1 tensors)

array f4 [32, 3]
0	0x3f256617	0.646089
1	0xbed4d752	-0.41570526
2	0xbf1b7b11	-0.6073466
3	0x3f492b02	0.7858125
4	0xbeb183f1	-0.34670976
5	0x3cb2d6b0	0.021830887
6	0xbd4506ad	-0.04810207
7	0xbd13a123	-0.036042344
8	0x3dc4d5d9	0.09611101
9	0x3c57a7b4	0.013162542
10	0x3dda15aa	0.10648663
11	0x3e800e90	0.2501111
12	0xbe5b8f1a	-0.21441308
13	0xbdbd1120	-0.09231782
14	0x3f322f93	0.6960384
15	0xbe294a11	-0.1653216
16	0xbdf6b6c6	-0.1204658
17	0xbd0d72f3	-0.034533452
18	0xbe8fd377	-0.28091022
19	0x3df71f68	0.12066537
20	0x3e1436a7	0.14473973
21	0xbd880052	-0.06640686
22	0x3d39ebbe	0.045390837
23	0xbe81f0d1	-0.2537904
24	0xbedf90c2	-0.4366513
25	0x3d094474	0.033512548
26	0xbe6d0195	-0.23145135
27	0xbea9ac93	-0.33139476
28	0xbd0e1704	-0.03468992
29	0xbd0bc7de	-0.034126155
30	0xbe625c58	-0.22105539
31	0x3e3a5e3c	0.1820001
32	0xbe84bd7f	-0.25925824
33	0xbf0909bd	-0.53530484
34	0x3f1b4545	0.6065257
35	0xbe4de280	-0.20105934
36	0xbed916e6	-0.42400283
37	0x3de66e9c	0.11251566
38	0x3cbbdacb	0.022931477
39	0x3ed7d1df	0.42152306
40	0x3e594e0b	0.21221177
41	0x3ebd755b	0.37003598
42	0x3ea1eddc	0.31626785
43	0xbf01ac6c	-0.5065372
44	0x3e50c538	0.20387733
45	0xbe18ffd8	-0.14941347
46	0x3e872f66	0.2640335
47	0xbf08f167	-0.5349335
48	0x3ede6511	0.43436483
49	0x3e8e5bb8	0.2780435
50	0xbe494c8b	-0.19658105
51	0xbe8e0a16	-0.2774207
52	0x3ec03527	0.37540552
53	0x3e2c2f9e	0.1681504
54	0xbeacda7d	-0.33760443
55	0xbc6268ca	-0.013818929
56	0x3e66ab98	0.22526395
57	0xbe51c6c4	-0.2048598
58	0xbdb4057c	-0.087901086
59	0x3ed10a53	0.4082819
60	0xbe5a1c8d	-0.21299954
61	0x3e0ac752	0.13552597
62	0x3e60960b	0.21932237
63	0x3ed1a645	0.40947166
64	0x3e00fc26	0.12596187
65	0x3c16d0b1	0.009205029
66	0x3e9f36c2	0.31096464
67	0xbea7e4cf	-0.32791755
68	0x3ee47412	0.44619805
69	0x3d82308c	0.06356916
70	0xbefcad6a	-0.49351054
71	0x3f25551f	0.6458301
72	0x3ece12de	0.4024877
73	0x3e478f4a	0.19488254
74	0xbe9d6c7f	-0.30746838
75	0x3d2ca424	0.042148724
76	0x3f1d98a6	0.6156105
77	0xbdc64ab6	-0.09682219
78	0xbef2d1da	-0.4742573
79	0xbececf51	-0.40392545
80	0x3e3c3b38	0.18381965
81	0x3eb07f38	0.3447206
82	0x3d8ccf84	0.06875518
83	0x3ec0afc7	0.37634107
84	0xbef1adf5	-0.4720303
85	0x3dcd0294	0.10010257
86	0x3ece707b	0.4032019
87	0xbef83d53	-0.48484287
88	0x3f0df99b	0.5545899
89	0xbebb8384	-0.36623776
90	0x3e58c7d3	0.21169977
91	0x3ea026fb	0.3127974
92	0x3e34090d	0.17581578
93	0x3e445cd6	0.19176039
94	0x3f096e5e	0.5368403
95	0xbf349dd7	-0.70553344
