ultra96/weights_3dance/weight_2.npy (npy, 4224 bytes, 1 tensors)

array f4 [32, 32]
-0.13135931 -0.25127903 0.24974512 0.23985513 0.13887498 0.050100774 -0.25254005 -0.10211798
0.30105498 0.11949098 -0.13549493 -0.0979853 0.08079677 0.29219148 -0.14688133 0.2625147
0.017946124 0.10901817 0.045018926 0.22899535 0.044475213 0.14169641 -0.19251817 0.13109355
0.041482665 0.17250095 -0.07104246 -0.062144425 -0.2222757 -0.26559097 0.08750401 0.11258721
-0.059748743 -0.11410125 0.118830584 -0.19194512 0.3584797 -0.058440853 -0.2686809 -0.13252096
-0.078055926 -0.17828424 0.23502612 0.2905028 0.17355452 0.29506615 -0.1993367 0.115575045
-0.22657607 0.3029533 0.3300278 0.2708021 -0.04315336 -0.13907665 -0.27484757 0.30847764
0.039647005 -0.10356369 -0.09052528 0.26353145 0.043575715 0.20125993 -0.01399929 -0.16346818
-0.2615124 -0.17269237 0.20387046 -0.04943454 -0.30911243 -0.045568183 -0.17438062 -0.19284967
0.3040823 0.20463808 0.14726394 -0.045358803 -0.20568399 -0.1634363 -0.13888991 0.38204247
0.22304362 0.2527756 -0.17611282 0.05084631 0.11511927 0.034274567 -0.06782848 0.0963356
-0.19087517 0.3392454 0.01975148 0.21701194 0.20112368 0.50906837 -0.12596437 0.15791309
-0.34891632 -0.019899784 0.045076832 0.14898823 0.3212681 0.13023363 -0.15950242 -0.03373385
0.25009704 -0.11917599 -0.044579092 -0.15216164 0.083512776 -0.24391726 0.14312448 -0.17233378
-0.29643366 0.18218185 -0.053738292 -0.18711916 0.19065583 -0.30834383 -0.1629182 0.33575132
0.029498734 -0.09819004 -0.110821635 -0.30769297 0.22499005 -0.15928255 -0.08715981 -0.24314223
0.021875711 0.017320912 -0.13835606 -0.0060069244 -0.10103514 -0.26538098 -0.01835643 0.05364206
0.108440846 -0.17929937 -0.032174118 0.2712634 0.16697332 0.025256567 -0.14436167 0.11165876
0.2100836 0.23288041 0.056607287 -0.13175587 0.2039348 0.109644726 -0.011551668 -0.30305633
-0.07882905 0.21825379 -0.1908144 -0.1186886 0.0029760126 -0.056941938 -0.19482085 0.23240237
-0.22474748 -0.0061837765 0.14985408 0.16070893 0.12690574 0.019547105 0.057870906 -0.15540414
0.20652005 -0.23436773 0.09177224 0.08806711 -0.19724075 0.1613723 -0.2096564 -0.21494259
-0.26600432 0.0019727952 -0.28209653 -0.19691882 -0.23516087 0.11935499 0.3265949 0.3094978
0.0044856686 -0.20295419 0.32143006 -0.24221073 0.1248565 -0.32547408 -0.16508049 -0.23594843
-0.2797726 -0.3105699 0.30848843 0.02135185 -0.09555971 -0.028105576 0.13385653 0.18357459
-0.13229969 0.33565578 -0.15922819 0.40067822 -0.08125659 0.22913264 -0.12186192 -0.20142354
-0.08509013 0.04397243 -0.06257155 -0.29085103 0.10467644 -0.10628645 0.16181415 -0.062028
0.070247926 0.31607938 0.29348502 -0.17207116 0.46000633 0.025679892 -0.2758519 -0.08139116
-0.15190658 -0.116035126 -0.06303356 -0.19100851 -0.09619109 -0.2529311 -0.17130367 -0.2288632
-0.1286284 0.3038556 0.2128636 -0.17892882 0.21913746 -0.26400864 -0.21388046 0.18427123
-0.02761538 0.18339965 -0.26866043 0.20558402 -0.20431282 -0.07573465 0.026525622 0.3052537
0.12962842 0.21835634 -0.03468345 -0.036636725 -0.23251899 -0.19070627 -0.26215503 -0.2751291
00000000: 0e83 06be a5a7 80be 2fbd 7f3e 959c 753e
00000010: 3e35 0e3e 7836 4d3d ee4c 81be 3b23 d1bd
00000020: e123 9a3e b0b7 f43d 2fbf 0abe 84ac c8bd
00000030: c778 a53d 1f9a 953e 0f68 16be 5468 863e
00000040: c003 933c eb44 df3d c465 383d c27d 6a3e
00000050: a42b 363d dd18 113e 7c23 45be 633d 063e
00000060: bae9 293d 17a4 303e b67e 91bd 278b 7ebd
00000070: 3e9c 63be 8afb 87be 4d35 b33d 2094 e63d
00000080: 19bb 74bd ebad e9bd 735d f33d 438d 44be
00000090: a78a b73e ad5f 6fbd 8b90 89be 93b3 07be
000000a0: c9db 9fbd 2590 36be b0aa 703e c8bc 943e
000000b0: 47b8 313e e912 973e eb1e 4cbe 9cb2 ec3d
000000c0: 8f03 68be b21c 9b3e 67f9 a83e 93a6 8a3e
000000d0: 94c1 30bd 1c6a 0ebe d2b8 8cbe c8f0 9d3e
000000e0: e664 223d 3319 d4bd 5165 b9bd 98ed 863e
000000f0: 737c 323d 1517 4e3e 475d 65bc 3464 27be
00000100: f4e4 85be 45d6 30be 6bc3 503e df7b 4abd
00000110: fc43 9ebe b4a5 3abd d590 32be 627a 45be
00000120: adb0 9b3e a58c 513e 5ccc 163e 27ca 39bd
00000130: d39e 52be d85b 27be 2839 0ebe 129b c33e
00000140: 8c65 643e ce6b 813e eb56 34be 3844 503d
00000150: a7c3 eb3d 7d63 0c3d a8e9 8abd 994b c53d
00000160: c874 43be 93b1 ad3e dbcd a13c 6138 5e3e
00000170: 5ef3 4d3e 4e52 023f cefc 00be f8b3 213e
00000180: 29a5 b2be df04 a3bc 7ca2 383d 5f90 183e
00000190: 417d a43e f75b 053e 9a54 23be 812c 0abd
000001a0: b80c 803e 8b12 f4bd 9198 36bd 43d0 1bbe
000001b0: bf08 ab3d 72c5 79be 398f 123e 4478 30be
000001c0: 27c6 97be e18d 3a3e af1c 5cbd 2a9c 3fbe
000001d0: 483b 433e 3edf 9dbe 07d4 26be 99e7 ab3e
000001e0: 54a7 f13c dc17 c9bd 74f6 e2bd ef89 9dbe
000001f0: cb63 663e f71a 23be d880 b2bd 47fa 78be
00000200: b134 b33c 96e4 8d3c 36ad 0dbe bcd5 c4bb
00000210: 83eb cebd 04e0 87be 3960 96bc c7b7 5b3d
00000220: 3c16 de3d 419a 37be 02c9 03bd 09e3 8a3e
00000230: 0efb 2a3e dce6 ce3c 8cd3 13be 59ad e43d
00000240: 2820 573e 3478 6e3e 0bdd 673d 03eb 06be
00000250: 49d4 503e 6a8d e03d 3543 3dbc 332a 9bbe
00000260: 2071 a1bd ec7d 5f3e da64 43be 0213 f3bd
00000270: 3509 433b f33b 69bd 1e7f 47be e3fa 6d3e
00000280: 3424 66be 47a1 cabb 5973 193e e290 243e
00000290: 94f3 013e 4021 a03c 0b0a 6d3d 4322 1fbe
000002a0: fe79 533e 18fe 6fbe 16f3 bb3d 875c b43d
000002b0: 7bf9 49be c83e 253e 2bb0 56be e919 5cbe
000002c0: b831 88be 034a 013b f56e 90be 16a5 49be
000002d0: 03ce 70be 6470 f43d 7237 a73e 7f76 9e3e
000002e0: 84fc 923b 39d3 4fbe 7b92 a43e 1706 78be
000002f0: c4b4 ff3d 8aa4 a6be dc0a 29be 779c 71be
00000300: 5b3e 8fbe 0503 9fbe 32f2 9d3e 13ea ae3c
00000310: cfb4 c3bd aa3d e6bc b011 093e fafa 3b3e
00000320: 9279 07be 13db ab3e b70c 23be b225 cd3e
00000330: db69 a6bd bfa1 6a3e be92 f9bd f941 4ebe
00000340: bc43 aebd 6f1c 343d 8325 80bd 6dea 94be
00000350: 9a60 d63d b6ac d9bd 9cb2 253e 1211 7ebd
00000360: 25de 8f3d 28d5 a13e ab43 963e 6c33 30be
00000370: f385 eb3e a35e d23c 763c 8dbe 69b0 a6bd
00000380: 668d 1bbe d3a3 edbd bd17 81bd bc97 43be
00000390: d6ff c4bd 2f80 81be 3b6a 2fbe 1d5b 6abe
000003a0: 2ab7 03be f692 9b3e eaf8 593e 1e39 37be
000003b0: 9265 603e 242c 87be 7b03 5bbe 99b1 3c3e
000003c0: a639 e2bc 1ecd 3b3e dc8d 89be 9e84 523e
000003d0: 6137 51be c51a 9bbd 434c d93c 374a 9c3e
000003e0: 50bd 043e ce98 5f3e 3c10 0ebd 6410 16bd
000003f0: 7519 6ebe 8148 43be 2f39 86be b9dd 8cbe
