ultra96/weights_dance_sat_40_mav_10/bias_3.npy (npy, 640 bytes, 1 tensors)

array f4 [128]
00000000: 0000 0000 7e92 eb3c 5021 a9bc 550e f73c
00000010: 96c8 77bc 504a 533c 6345 b13a 3008 b63c
00000020: ae46 e1bc e659 be3c dc30 873c 0cb8 ed3c
00000030: 3a7c 383b 80c8 c83c b550 ca3c bede bb3c
00000040: 98de 6d3b 3ec8 1cbd 5b92 373b bb58 133d
00000050: 5442 453d c139 1a3c a694 213d c145 a43c
00000060: 4018 013d 02d2 abba e5f2 4f3c 8224 7b3c
00000070: e0e2 ee3c 57e5 fb3b 6b64 843b 9270 c73c
00000080: 0c5a 7e3c e659 3bbc f3ad cf3a 89cd a83c
00000090: c1c5 d03c 6bb4 8abc de48 953c 2242 ba3b
000000a0: fc97 883c 6498 943b c628 54bb 9751 c73c
000000b0: e642 7e3c 918b 58bc d158 cf3c f3c0 1cbc
000000c0: b2e6 903c 0f0d a8bb 1be5 d7bb f848 3abb
000000d0: c9b6 95bc 4d31 8abb b5b6 833b 7a44 3b3c
000000e0: e2f4 c93c 10e8 a23b cb0e 8dbc dda0 b3bb
000000f0: 6f25 7b3c 44ae 7e3c 9edf d43c 2ed8 743b
00000100: 122d 143c c23e 03bb 05de 043d 169c 3c3c
00000110: f176 1d3d 096d 573c b0a4 b43c 0a22 293c
00000120: a911 193d 58b8 92bc cc32 22bc 00e5 113d
00000130: 7b17 34bc 457e 6c3c 5e64 c3bc d228 3abc
00000140: 51b7 04bb 1d17 683c 1264 043c 59ab 043d
00000150: ca43 fe3c 2435 9ebc d165 073c 314e 0ebb
00000160: 8119 853c cd6f 753c 1986 0f3d c468 883c
00000170: 6df0 dc3c 8640 8fbc 2928 25bc d689 7b3c
00000180: 7151 083c c730 e6bc a503 633c cae3 b2bc
00000190: 233a b1bc 5bb6 cf3b 6eb8 fd3c a12a 1e3d
000001a0: 7a1b 4b3b 7616 36bc e6e9 62ba 7d36 ff3b
000001b0: e09e a23c 02eb 8b3c 0000 0000 e2dc aa3b
000001c0: 0372 7d3c 3156 c0bc d974 8b3b 19d8 ea3c
000001d0: 64a0 773c 31c2 203c 316b 99bc 993f bd39
000001e0: 6daf f0bb 3937 8b3b 2229 a83a 13f1 ca3c
000001f0: a7b8 1d3d 7a23 6a3d 6a58 1bbc 3b1f 353c
0.0 0.028756376 -0.020645767 0.030158201 -0.015123507 0.012896135 0.0013524707 0.022220701
-0.027499523 0.023236226 0.01650279 0.029018424 0.0028150217 0.024509668 0.024696687 0.02293336
0.0036296006 -0.038276903 0.0028010819 0.03597329 0.04815896 0.009413184 0.039448403 0.020052793
0.031517267 -0.0013108852 0.012692188 0.015328528 0.029160917 0.0076872515 0.004040291 0.02434567
0.015524399 -0.011435008 0.0015844688 0.02060582 0.025484921 -0.016931733 0.018223222 0.005684153
0.016674034 0.004534768 -0.0032372936 0.024330897 0.0155188795 -0.013216869 0.025310906 -0.009567487
0.01768813 -0.00512851 -0.006588591 -0.002842484 -0.018275635 -0.004217303 0.004019583 0.0114299
0.024652902 0.0049715117 -0.017218968 -0.005481823 0.015328749 0.015544478 0.025985535 0.0037360298
0.009043949 -0.002002642 0.032438297 0.011511823 0.03844351 0.013148555 0.022051185 0.010323057
0.037370358 -0.017910168 -0.009899806 0.035618782 -0.010991926 0.014434402 -0.02385157 -0.011362271
-0.0020250867 0.014165667 0.008080499 0.032389972 0.031038184 -0.019312449 0.008264021 -0.0021714086
0.016247513 0.014980269 0.035039995 0.016651519 0.026970113 -0.017486822 -0.010080376 0.015352687
0.008320198 -0.02809943 0.013855849 -0.021837134 -0.021634167 0.006338877 0.030971732 0.038614873
0.003099172 -0.011113754 -0.00086560694 0.007788478 0.019851148 0.017079834 0.0 0.0052143196
0.015469077 -0.0234786 0.0042558727 0.028667497 0.015113924 0.009811924 -0.01872787 0.00036096273
-0.007345131 0.0042485264 0.0012829641 0.024773156 0.038506176 0.05716274 -0.009481529 0.011054809
