ultra96/weights_dance_sat_40_mav_10/bias_2.npy (npy, 640 bytes, 1 tensors)

array f4 [128]
0	0x3d485a02	0.048913963
1	0x3ca95a2a	0.020672876
2	0xbc894265	-0.016755292
3	0x3cf26ba0	0.029592335
4	0x3d8b63b3	0.068061255
5	0x3cfb9404	0.030710228
6	0x3c06ca84	0.008226994
7	0xbc4f3344	-0.0126465
8	0x3c84b1bc	0.016198032
9	0x3cfbbdd9	0.030730175
10	0xbad81900	-0.0016486943
11	0x3c3dfec2	0.0115963835
12	0x3d1b5748	0.037925035
13	0xbc344350	-0.011002377
14	0x3cf9aefa	0.030478943
15	0x3d600aca	0.05469779
16	0xbcfe7262	-0.031060401
17	0xbc888075	-0.016662816
18	0x3d37813c	0.044800982
19	0xbc267be3	-0.010161373
20	0xbc0f17b7	-0.008733681
21	0x3c823483	0.01589418
22	0x3ced529d	0.028970057
23	0x3c3801e1	0.011230917
24	0x3d0b8133	0.03405876
25	0x3d2f1a42	0.04274965
26	0xbaed3107	-0.0018096276
27	0x3ca8fc46	0.020628106
28	0x3d0be1ff	0.034151074
29	0x3c06a3cc	0.008217763
30	0x3ca3c14a	0.019989628
31	0x3c534872	0.01289569
32	0x3bb330c4	0.00546846
33	0x3c88bcf2	0.016691659
34	0xbc0684d7	-0.008210382
35	0x3c80c566	0.015719127
36	0xbc8a6519	-0.01689391
37	0x3bcbc636	0.006218697
38	0x3c86164b	0.016368052
39	0xbb7024d5	-0.0036643047
40	0x3cbb10aa	0.022835094
41	0x3cf1bdfb	0.029509535
42	0x3d0c3570	0.03423065
43	0x3a41ea2b	0.00073972595
44	0x3d013e9b	0.031553846
45	0x3d04bb43	0.03240515
46	0x3cf73242	0.030175332
47	0x3d17498f	0.036935385
48	0x3cfd8483	0.030946976
49	0x3c91b93e	0.017788526
50	0x3c61b175	0.013775219
51	0x3c819920	0.015820086
52	0xbb4087b3	-0.0029377758
53	0x3cd4b8e0	0.025967062
54	0xbc10dc86	-0.008841639
55	0xbba6296c	-0.005070856
56	0x3caf19db	0.021374634
57	0x3a250de4	0.00062963204
58	0x3c62cb38	0.013842396
59	0xbbea1821	-0.0071439897
60	0xbcadc525	-0.02121217
61	0x3d2d47aa	0.042304672
62	0xbcca5606	-0.024699222
63	0xbcc4978b	-0.023998043
64	0x3ca952be	0.020669337
65	0xbc9f92d3	-0.01947919
66	0x3cc73b90	0.024320394
67	0x3c7eb272	0.015545474
68	0xbd0145f9	-0.03156087
69	0x3cf976a8	0.030452088
70	0x3b01cb9d	0.00198052
71	0x3d26c849	0.04071835
72	0x3d37c34c	0.044863984
73	0x3c514579	0.012772911
74	0x3c5f00bc	0.013611015
75	0x3c37cc12	0.011218088
76	0xbc488002	-0.012237551
77	0x3c04b884	0.008100633
78	0x3d0258e8	0.03182307
79	0x3bdfcb0b	0.0068296245
80	0xbcb81b0d	-0.022473836
81	0x3d1677a8	0.036735207
82	0x3cc0c5ed	0.023531878
83	0xbc4294f5	-0.011876334
84	0xbce57736	-0.028010946
85	0x3bdc4dbd	0.0067231343
86	0x3cf4414d	0.029816294
87	0x3b860fb9	0.0040912298
88	0x3cffdc5d	0.031233007
89	0x3d0e678c	0.03476672
90	0x3ca73c70	0.020414561
91	0xbcee60f3	-0.029098963
92	0x3ad2fa06	0.0016096241
93	0x3d22292f	0.039590057
94	0xbb2cd5f8	-0.0026372653
95	0x3ccdfbce	0.025144484
96	0x3c9a7faa	0.018859703
97	0x3d0d6596	0.034520708
98	0xbc3bb439	-0.011456543
99	0x3cb94eaf	0.022620527
100	0x3cda27bb	0.026630273
101	0x3c9074c4	0.017633803
102	0xbc716138	-0.014732651
103	0xbbf7c621	-0.0075614606
104	0x3cd3ffd0	0.025878817
105	0x3bf34651	0.007424154
106	0x3d8e52ca	0.069493845
107	0xbcf8048e	-0.03027561
108	0xbca44e3c	-0.020056836
109	0xbc06c050	-0.008224562
110	0x3d24a2d2	0.04019434
111	0xbc25dc06	-0.010123258
112	0x3cae9743	0.021312362
113	0x3cc7786b	0.024349412
114	0x3cb6339b	0.022241404
115	0x395cf053	0.00021070363
116	0x3cd0bfe5	0.025482127
117	0xbca2822f	-0.019837467
118	0x3c2a85f7	0.010407916
119	0xbc2069a0	-0.009790808
120	0x3d39c277	0.04535147
121	0xbc3c3b79	-0.011488789
122	0xbb4b8248	-0.0031052995
123	0xbc784e5b	-0.0151554
124	0x3d1b0dd3	0.03785498
125	0x3d2d3a24	0.042291775
126	0xbbd060f6	-0.006359215
127	0x3cfae229	0.03062542
