ultra96/weights_dance_sat_40_mav_10/weight_0.npy (npy, 51328 bytes, 1 tensors)

array f4 [100, 128]
00000000: 1f5f 32bd 8ba2 2bbe 2795 563d b861 00be
00000010: ada0 9fbc 4191 69bd 158d e5bd 4641 dbbb
00000020: 324c e1bd 5759 1c3d 333d e63d 0969 14bd
00000030: 5ee1 1abd d171 bebd 5a0f 283c 6d53 153d
00000040: cb5c 4abc 9116 9b3d 16a5 fe3c cdc2 833e
00000050: c4c0 193e 57db e03d 2c34 b43d bdd1 ed3d
00000060: 854d 6b3d 8e9c 5f3d ebae 51be b903 4e3d
00000070: 08db 3c3e 6577 cabb 596b 33bc 1665 d83d
00000080: 59e1 46bd bbe9 b0bd 7417 1fbe 0d47 05be
00000090: 9510 1f3e 8b57 883d 563f 473e 9202 c9bd
000000a0: 1604 903d 8f96 153e f501 d73d 157d 4b3d
000000b0: 82cd 89bd 0cd9 063e 98f8 c73c 0948 50be
000000c0: 9455 083e 15c7 313e df17 5fbe 3247 a33b
000000d0: 9067 80bd 90af 99bd 4f39 06be 1a5d 62bd
000000e0: fa01 e83c f544 023d 1890 a9bc ab69 2b3d
000000f0: 8726 eebd 0955 7d3d 15e9 01bc 239b de3d
00000100: 3926 313e 0085 cfbd 2188 04be 4726 7cbe
00000110: fd06 8f3d 0441 513d 6dcb 4b3e 0638 7e3d
00000120: e706 fd3c 9727 413c 4109 2abe 84ec b23d
00000130: 6cbe 1dbd 7945 1cbd 6df6 fd3d 2714 30be
00000140: 54cb 073d 5f7d 923c 48cd f1bd 2b36 ca3d
00000150: 4c9e 653e d44d e0bd 30f0 553c a096 103e
00000160: 53d9 1d3e 496f c2bd efe9 afbd 6a95 b7bd
00000170: 27a4 eebd 47a1 debc 44f0 6f3d 46ba 41ba
00000180: 3e38 2abe d218 0d3e fce4 083e 507a 033e
00000190: d7a4 d93c a823 2a3d 0064 34be c85b 0d3c
000001a0: 4ada 4dbe 33e7 613d 5de4 a8bd 0b14 31bd
000001b0: 2915 523c 1f22 0e3e b953 7fba a6af f93d
000001c0: 635d 613d 4d41 fe3b 4082 99bc a58b 0dbe
000001d0: 3f34 0c3e eff7 23be 892e ca3d 75ec 1a3e
000001e0: 56d5 60be a7d4 2e3e 6db4 3dbd cad0 383e
000001f0: 046c 673b 8111 b53d 0c16 f73d 5573 8cbd
00000200: 5bf4 56be 0fd1 23be a471 e73d eda7 ff3d
00000210: cad2 323e 03b5 463d 14cb 3cbd dafb e1bd
00000220: 1b3a e3bd 1b28 bd3c d8a4 17be e472 02be
00000230: 74ff b53d 9924 50be 6888 963d bb8a aa3d
00000240: a2ad 6ebd 4546 97bd bac5 043b 9a9b 52bd
00000250: 0957 7c3d e3fc 84bd 21e9 06be 07f7 05be
00000260: d839 293e 6e16 e93c ddd8 e33c e771 00be
00000270: e979 50be eb02 ab3a 7284 c43d 3c7e ccbc
00000280: 8490 973d 16d8 33bd 17ee c7bb 1a95 22be
00000290: c2bc 63bc 5697 10bd 9c52 0fbd 3de9 82bd
000002a0: 86bb 073d c7c7 243e d411 19bd 25ec afbd
000002b0: 94f2 75bd 105e 2e3e 464f 58be b085 183e
000002c0: 10fa a73c 43c2 00be 7663 e93d 9ec7 2bbe
000002d0: e52e 8c3d d84b 1ebd d829 453d 8555 043e
000002e0: ccd8 cabd c970 f93d dcb4 e73c 78be c13d
000002f0: 2d2a e9bc 53d2 46be ad9d 7bbd 0475 c5bc
00000300: fbf9 ac3b bfdf f93c 593b 2d3d 9f1a 703d
00000310: 96f2 e13d 6c2b 283e 3e8c 113e 160d d83d
00000320: f3e9 4e3d 6902 ed3c 8dfb cb3c 5917 8f3d
00000330: 7870 11be b890 523d b7a2 833c a1a5 f33d
00000340: 08cd 16be ca61 12bd 08ff 56bd 1eca 2cbb
00000350: e788 823d 609a 21bd 0fe2 04be e7f9 9f3b
00000360: 8d06 06bd dfff 02be 172f 21be a1c6 73bd
00000370: bd15 0d3d 9edb da3d e577 78bd c7c0 30be
00000380: 136a 28bd 8408 4ebd f6f2 ce3d 0d4f 48bd
00000390: 3f06 8339 84f4 a03c a701 97bd 680e 293d
000003a0: efff edbd 919c 373d 323f 49be 6680 b23d
000003b0: 1b50 a6bc d52a 403e 81ee ccbd 39bc cc3d
000003c0: fab0 f33d 4dc3 b0bd e183 16bc 446f a0bd
000003d0: c6f5 2fbe 2653 0b3d de11 8d3d 81bb e0ba
000003e0: 8c0a c7bd 162a 2bbd b23b 463c 2cb6 d2bd
000003f0: d01e 103d c8dc 203e 537a 1f3e ab85 49ba
-0.043547746 -0.16761224 0.052388337 -0.12537277 -0.019485796 -0.05702329 -0.1120855 -0.006691131
-0.11000861 0.03817114 0.112421416 -0.03623298 -0.037812583 -0.092990525 0.010257566 0.036456514
-0.012351225 0.075726636 0.031084578 0.2573456 0.1501494 0.10979336 0.087990135 0.1161227
0.057446975 0.05459266 -0.20476882 0.05029652 0.18442929 -0.0061787837 -0.010950887 0.105661556
-0.048554752 -0.086383305 -0.1553629 -0.13015385 0.1553367 0.066573225 0.19457754 -0.098149434
0.07032029 0.14608215 0.1049842 0.049679834 -0.06728651 0.13168734 0.02441053 -0.20339979
0.13313895 0.173611 -0.2178645 0.0049828524 -0.06269753 -0.07504189 -0.13107799 -0.05526457
0.028321255 0.031804044 -0.020698592 0.04184882 -0.11628442 0.061848674 -0.007929106 0.10869434
0.17299737 -0.101327896 -0.12942554 -0.24623977 0.06983755 0.051087394 0.1990182 0.062065147
0.03088708 0.011789224 -0.16605093 0.08736518 -0.03851168 -0.03815219 0.124005176 -0.17195188
0.033152893 0.017882047 -0.118067324 0.09873613 0.22423667 -0.109523445 0.013057753 0.14119959
0.15414934 -0.09493882 -0.08589541 -0.08964045 -0.11652403 -0.027176512 0.058578745 -0.00073901226
-0.16623017 0.13779 0.133686 0.12839627 0.02656786 0.04153791 -0.17616272 0.008627839
-0.20102802 0.05515213 -0.08246682 -0.043232005 0.012822428 0.13880204 -0.00097399537 0.121917054
0.0550207 0.0077592493 -0.018738866 -0.13822801 0.13691805 -0.16012548 0.09872157 0.15129264
-0.21956381 0.17073308 -0.046314646 0.18048397 0.0035312185 0.08841229 0.12064752 -0.06857935
-0.20991652 -0.15997718 0.11300972 0.12483201 0.17463222 0.04851247 -0.046092108 -0.11034365
-0.11095067 0.023090413 -0.14808977 -0.1273914 0.088866144 -0.20326461 0.07350236 0.08327242
-0.058271058 -0.0738645 0.0020259456 -0.051417924 0.06160644 -0.06493547 -0.13174869 -0.13082515
0.16525972 0.028453078 0.02781337 -0.1254345 -0.20359005 0.0013047134 0.095955744 -0.024962537
0.07400611 -0.043907247 -0.0061013806 -0.1587719 -0.013899984 -0.035300575 -0.03499089 -0.06392143
0.03313782 0.16091834 -0.037370518 -0.08589963 -0.060045794 0.1702807 -0.2112399 0.14894748
0.020504981 -0.12574105 0.11395924 -0.16775367 0.06844882 -0.03864655 0.04813561 0.12923248
-0.09904632 0.12179715 0.028284483 0.09460157 -0.028462494 -0.1941617 -0.06142967 -0.024103649
0.0052788234 0.030502198 0.042292926 0.058619138 0.11032598 0.16422814 0.14213654 0.10549371
0.05051608 0.028931813 0.024900222 0.06986875 -0.1420306 0.051407546 0.0160688 0.118968256
-0.1472665 -0.03573779 -0.05248931 -0.0026365588 0.06373768 -0.039453864 -0.1297686 0.0048820856
-0.03272109 -0.1279292 -0.1574062 -0.0595156 0.03444456 0.1068642 -0.060661215 -0.17261039
-0.041116785 -0.05030109 0.10104935 -0.048903514 0.0002499092 0.019647844 -0.07373362 0.041273504
-0.11621081 0.044827048 -0.19653013 0.08715896 -0.02030187 0.18766339 -0.100064285 0.09996838
0.1189899 -0.08631001 -0.009186716 -0.07833722 -0.17183599 0.034014843 0.068881735 -0.0017145724
-0.097188085 -0.041788183 0.012099193 -0.10288653 0.035185635 0.15709221 0.15574007 -0.00076874596
