ultra96/weights_dance_sat_40_mav_10/weight_1.npy (npy, 65664 bytes, 1 tensors)

array f4 [128, 128]
0	0x3e0d6e52	0.13811615
1	0x3e1910bc	0.1494779
2	0xbd857ef2	-0.065183535
3	0x3c72066d	0.01477204
4	0xbc8ba999	-0.017048644
5	0x3e251cc9	0.16124262
6	0xbda4af8e	-0.08041297
7	0xbd1580fc	-0.036499962
8	0xbe127d56	-0.14305624
9	0xbc15fd92	-0.009154694
10	0x3cb9ac44	0.02266515
11	0x3d243ab2	0.04009504
12	0x3d8d0bd4	0.06887022
13	0xbd5aeaa4	-0.053446427
14	0x3d3388f2	0.043831773
15	0xbdeecf1c	-0.11660597
16	0x3e187043	0.14886574
17	0xbc864417	-0.01638989
18	0xbc91e925	-0.017811367
19	0xbddfd5f7	-0.109294824
20	0xbd9095af	-0.070598
21	0x3b9b387c	0.004736958
22	0xbd61bf9e	-0.05511438
23	0x3dfe102d	0.12405429
24	0x3d201c80	0.03908968
25	0xbce554ed	-0.027994597
26	0xbd21aeab	-0.039473217
27	0x3dbf1af6	0.09331314
28	0xbdc7a8c4	-0.09748986
29	0x3e02cf98	0.12774503
30	0x3d8450fb	0.06460758
31	0xbcba7ccb	-0.022764584
32	0x3e02d30b	0.12775819
33	0xbd759bd5	-0.059963066
34	0x3d575d80	0.052579403
35	0x3c636815	0.013879796
36	0x3e113651	0.14180876
37	0xbd071bfc	-0.032985672
38	0xbdcb831e	-0.09937118
39	0xbd9f02a1	-0.07764173
40	0x3e022ff6	0.12713608
41	0xbdc78fb1	-0.09744204
42	0x3c443f1b	0.011977936
43	0x3ded9cee	0.116021976
44	0x3d2ff787	0.04296067
45	0xbc97ecbe	-0.018545505
46	0x3de42769	0.111403294
47	0x3dff2ed5	0.124601044
48	0xbdd020d9	-0.10162515
49	0x3dde4b9e	0.108542666
50	0xbcafe0cf	-0.021469502
51	0x3bf8c412	0.007591733
52	0x3d5b6481	0.053562645
53	0xbdf067ed	-0.11738572
54	0x3daa532a	0.083166435
55	0x3dfd238f	0.12360298
56	0xbe791fe6	-0.24328575
57	0x3d61eb71	0.055156175
58	0x3d92d2a8	0.07169086
59	0xbe1311bc	-0.14362234
60	0x3e1949dd	0.14969583
61	0x3dfeab61	0.12435032
62	0xbe037098	-0.1283592
63	0xbd92a659	-0.071606345
64	0x3e0f355b	0.13985197
65	0x3e4cfeb6	0.2001904
66	0x3e2e2cae	0.17009231
67	0x3d8bd188	0.06827074
68	0xbc9ae9ff	-0.018910406
69	0xbc7bb917	-0.015363953
70	0x3da98a34	0.08278313
71	0xbe23aeb3	-0.15984611
72	0x3dde3724	0.10850361
73	0x3c2fef0d	0.0107381465
74	0x3d7e72b2	0.0621211
75	0x3df0aee3	0.11752107
76	0x3e108399	0.141127
77	0xbd88c019	-0.06677265
78	0xbdb31769	-0.087446995
79	0x3dc6b5bd	0.097026326
80	0x3dc8acdf	0.097985975
81	0xbdf0e5dd	-0.11762593
82	0x3d6411f6	0.05568119
83	0x3dd6b225	0.10483197
84	0x3e2629c4	0.1622687
85	0x3db94bcf	0.090476625
86	0xbe1803aa	-0.14845148
87	0x3d172c57	0.03690752
88	0x3c1a4275	0.009415259
89	0xbdd171f3	-0.10226812
90	0x3d999b6d	0.07500348
91	0x3d9dc61a	0.077038005
92	0xbca469ed	-0.02007004
93	0xbd91bfef	-0.071166866
94	0x3d43d179	0.04780719
95	0x3dd4068e	0.10352813
96	0xbd673e44	-0.056455866
97	0xbcc4587e	-0.023967978
98	0xbd9480ba	-0.07251115
99	0x3c5367b1	0.01290314
100	0x3e652585	0.22377594
101	0x3db6b34f	0.08920919
102	0xbda1061d	-0.07862494
103	0x3e11662c	0.14199132
104	0xbe39fc11	-0.18162562
105	0x3b633e60	0.003467463
106	0xbd90ae61	-0.0706451
107	0xbc919faa	-0.01777633
108	0x3c253f1e	0.010085849
109	0x3e1d7488	0.15376484
110	0x3e1bd81e	0.15219161
111	0x3d62fa94	0.05541475
112	0xbd97b324	-0.07407215
113	0x3de7e031	0.11322058
114	0x3db1594f	0.086596124
115	0xbbcea4e3	-0.006306277
116	0xbd11bbd3	-0.035579514
117	0x3de8c9b3	0.11366596
118	0x3e330d15	0.17485459
119	0x3e1f5b7d	0.15562244
120	0xbe3b338b	-0.18281381
121	0x3d343559	0.04399619
122	0x3e153b2a	0.1457335
123	0x3d76972b	0.06020276
124	0x3e39dc43	0.1815043
125	0xbd95d913	-0.07316794
126	0xbde4422a	-0.11145432
127	0x3c89bce7	0.016813708
128	0xbdef8d7c	-0.11696908
129	0x3d90dabb	0.070729695
130	0xbe00feb1	-0.12597157
131	0xbc36a658	-0.011148058
132	0xbde86308	-0.11347014
133	0x3dc67b84	0.096915275
134	0x3e69f442	0.22847083
135	0xbc7f7368	-0.01559148
136	0x3dd7117c	0.10501382
137	0xbd843c70	-0.0645684
138	0x3db23395	0.08701245
139	0xbd3c6933	-0.045998763
140	0x3d46a1b2	0.04849405
141	0x3ba98084	0.005172791
142	0x3d833dd8	0.0640828
143	0xbc290aab	-0.010317485
144	0x3e3c5eb1	0.18395497
145	0xbdb33ab7	-0.08751433
146	0xbd0a3491	-0.033741537
147	0xbd01a6d4	-0.03165324
148	0xbde2e2a3	-0.11078384
149	0xbe44b0db	-0.1920809
150	0x3df609bd	0.12013576
151	0x3dea128b	0.11429318
152	0xbb93e1c7	-0.0045129987
153	0x3ddb06f2	0.10694684
154	0xbe1153b1	-0.14192082
155	0x3b3234a5	0.0027192023
156	0x3d1e32f4	0.03862281
157	0xbe054a26	-0.13016567
158	0x3e2367e7	0.15957604
159	0xbe184991	-0.14871813
160	0xbdb7b0c5	-0.08969263
161	0x3db50d0a	0.08840378
162	0xbdf5f272	-0.120091334
163	0xbe45dc3e	-0.19322297
164	0xbd0756a6	-0.03304162
165	0xbd3c1850	-0.045921624
166	0x3d9b6e57	0.07589405
167	0x3d0c435d	0.03424393
168	0xbe53a98e	-0.20670149
169	0x3e296b95	0.16544946
170	0x3b81a36c	0.003956249
171	0x3e085c48	0.13316453
172	0x3d3dd40c	0.0463448
173	0x3e28176d	0.16415186
174	0xbdb89a84	-0.090138465
175	0x3d5b5f00	0.053557396
176	0x3cd9a167	0.02656622
177	0xbe02c5fb	-0.12770836
178	0x3de81a94	0.113331944
179	0x3dc0fdf8	0.09423441
180	0x3df1846e	0.11792837
181	0x3de65529	0.11246712
182	0xbe123c25	-0.14280756
183	0x3d007994	0.031365946
184	0xbd81a373	-0.063300036
185	0xbcb8bf2a	-0.022552092
186	0x3dd37d94	0.103266865
187	0x3d9088ca	0.070573404
188	0x3dc3300b	0.09530648
189	0xbbf0ab34	-0.0073446278
190	0xbe1cd890	-0.15316987
191	0xbe25aeed	-0.1618001
192	0xbdc2f693	-0.095196865
193	0xbe2809ed	-0.16410036
194	0x3db322d9	0.08746881
195	0x3e0ec555	0.13942464
196	0xbd803c79	-0.06261534
197	0x3dfa39bd	0.12218044
198	0xbd56cebc	-0.05244325
199	0xbd9e6af0	-0.077352405
200	0xbd8e9d34	-0.06963578
201	0x3e0f4725	0.13991983
202	0xbd95fffb	-0.07324215
203	0xbe2530fe	-0.1613197
204	0xbe000772	-0.1250284
205	0x3d26848e	0.040653758
206	0xbdd51296	-0.104039356
207	0xbcdaf061	-0.02672595
208	0xbd0069c9	-0.031350885
209	0x3de80770	0.113295436
210	0xbb8546e2	-0.004067288
211	0x3dc8c25e	0.098026976
212	0xbdeb6145	-0.11493162
213	0x3e1db10b	0.15399568
214	0xbd83a0eb	-0.06427177
215	0xbd92b0c9	-0.07162625
216	0x3d76a3d3	0.06021483
217	0xbd7873dc	-0.060657367
218	0x3c613665	0.013745879
219	0xbd571588	-0.05251077
220	0x3da7c3a2	0.08191611
221	0xbc9d5ce8	-0.01920934
222	0xbb03441a	-0.0020029605
223	0xbdeee038	-0.1166386
224	0xbe389084	-0.18023878
225	0x3d392b48	0.04520729
226	0x3da0a063	0.07843091
227	0x3d8ae30c	0.06781587
228	0xbd5ee4f7	-0.054417577
229	0xbdbf665a	-0.09345694
230	0x3dee1581	0.11625195
231	0x3d9eba0f	0.077503316
232	0x3e287cdb	0.16453879
233	0xbdc2c5ec	-0.09510407
234	0x3d147ff2	0.03625483
235	0xbd1583f2	-0.036502786
236	0x3d23dbbb	0.040004473
237	0x3d5357f3	0.051597547
238	0xbd669d52	-0.056302376
239	0xbcbe4727	-0.023227287
240	0x3d3ae601	0.045629505
241	0x3d71b48a	0.059010066
242	0xbe1179cb	-0.14206617
243	0xbdac1b09	-0.08403594
244	0x3d17c91c	0.037057027
245	0xbc4f9cd2	-0.012671666
246	0x3d9d535a	0.07681914
247	0xbe3e4af6	-0.18583283
248	0x3d2cb164	0.04216136
249	0xbd64d4f3	-0.055867147
250	0xbd68e1f4	-0.05685611
251	0xbdc2c29a	-0.095097736
252	0xbe1348b2	-0.143832
253	0x3d1cff04	0.03832914
254	0xb9f1f4fc	-0.0004614963
255	0x3da95445	0.08268026
