ultra96/weights_3dance_pos/weight_1.npy (npy, 4224 bytes, 1 tensors)

array f4 [32, 32]
0.07660522 -0.14897713 -0.26619875 -0.22914913 0.26029968 0.20356517 -0.21709946 -0.091494985
-0.14027423 0.22969577 0.079853036 0.21883142 -0.115094334 0.2038814 0.23842199 -0.051885214
0.027723243 -0.23325573 0.30693883 0.26172143 -0.29102743 0.07077139 0.22966352 -0.31624317
-0.23668781 0.07109017 0.2082845 0.124418415 -0.21115543 -0.12707876 0.11932026 0.20979282
-0.012638034 0.13682199 -0.24178672 -0.26079693 0.13680157 -0.22388189 -0.22580014 -0.021404479
0.11003861 0.00947836 -0.14512111 -0.055887688 -0.02275549 0.08908952 -0.29278222 0.11599439
0.26916066 0.2527133 0.08493769 0.022932572 0.15570857 0.16990227 -0.10429672 0.124980204
0.15681425 -0.188242 -0.17967616 0.28937802 0.074520916 0.14249213 0.08008317 -0.24107757
0.31607106 0.041464936 0.3029032 0.12233798 0.1591279 -0.2671747 -0.015384852 0.08935764
0.18815409 0.03709104 0.17085552 0.30750424 -0.04319576 0.25325835 -0.02643028 -0.09727646
-0.21187453 -0.25001281 -0.07128572 0.28211054 0.09363452 0.27342075 -0.05560036 -0.078068584
0.16881132 0.13945457 0.17388834 -0.05196983 -0.20388441 0.1506549 -0.08652244 0.29063588
0.052281193 0.27804255 0.24309467 0.1924193 -0.08319323 -0.015875695 -0.08017379 -0.25218502
-0.013730816 -0.08060964 -0.09150801 -0.26253313 -0.05646678 0.15678824 0.19717461 -0.010657378
0.13508675 0.2792408 -0.018410765 0.1798759 0.10675899 -0.040799562 -0.28223333 -0.19340731
0.3106271 0.0538439 -0.007748195 -0.22310665 0.2972684 -0.239775 0.25782835 0.24080387
0.1596897 0.068963274 -0.10347259 -0.10699253 -0.02923313 -0.073555015 0.21553902 -0.26871988
-0.14580716 -0.04925516 -0.30552647 0.18378541 -0.2573184 0.27004352 0.28426534 0.104748085
0.20458208 -0.15507568 -0.07794685 0.28357226 -0.07474812 -0.2596252 0.13841332 0.22449514
-0.28735065 0.29863808 0.33193424 -0.16401003 -0.05642042 -0.20039609 0.18931891 -0.1095108
0.27000692 -0.11323868 0.21752562 0.03361786 -0.17828159 -0.1578476 -0.021014102 0.12988256
0.274229 -0.0513441 -0.028921816 0.1736137 0.18960547 -0.094519444 -0.060684692 -0.076863475
0.2557969 -0.1616893 -0.1510645 0.26525542 -0.22966485 0.30658635 0.22310042 0.015954595
-0.29400757 0.018664131 0.19796796 -0.004474577 -0.11186541 -0.15630819 0.26034027 -0.103815265
-0.22245999 0.15098363 -0.25190982 -0.272104 0.29323253 0.15064369 0.3283117 -0.026543958
0.3002539 0.15224276 0.2524335 -0.14181896 0.26573375 -0.10489224 0.22488119 -0.18868442
-0.19338872 -0.09973426 0.2197844 0.18556012 -0.13206145 -0.0006146262 0.024674451 0.22388914
0.095247164 -0.28697625 -0.11090053 0.3298619 0.20599821 -0.14955376 -0.0016000789 0.021987805
-0.26571676 -0.22145098 -0.26636776 -0.30739582 0.29012004 0.17113604 -0.07866084 0.14146735
-0.022248928 0.01663727 0.2678692 -0.19854417 0.29007304 -0.28470552 -0.08564254 -0.24077071
-0.14720494 0.11172321 -0.22544083 0.14418493 -0.160294 0.13531642 0.014861024 0.11476463
0.11467807 -0.150634 -0.08351543 0.18577296 0.007154242 0.31288442 0.30201232 0.1744473
00000000: 33e3 9c3d 768d 18be 344b 88be 12a6 6abe
00000010: 0046 853e 6373 503e 524f 5ebe b961 bbbd
00000020: 0ca4 0fbe 5e35 6b3e fd89 a33d 5815 603e
00000030: 94b6 ebbd 49c6 503e e524 743e 9785 54bd
00000040: db1b e33c 97da 6ebe 1627 9d3e 5a00 863e
00000050: 8c01 95be 97f0 903d ea2c 6b3e a0ea a1be
00000060: 4a5e 72be b997 913d 8848 553e 15cf fe3d
00000070: 2139 58be ef20 02be 2e5e f43d eed3 563e
00000080: c20f 4fbc 101b 0c3e f096 77be 2d87 85be
00000090: b615 0c3e 4b41 65be 2738 67be 7258 afbc
000000a0: ec5b e13d 204b 1b3c a19a 14be 7dea 64bd
000000b0: b969 babc 9174 b63d 8de7 95be 778e ed3d
000000c0: 6dcf 893e a363 813e d0f3 ad3d 17dd bb3c
000000d0: 1172 1f3e dcfa 2d3e 8599 d5bd 9ff5 ff3d
000000e0: ea93 203e 83c2 40be 07fd 37be 5b29 943e
000000f0: 6c9e 983d 75e9 113e a502 a43d 0add 76be
00000100: 11d4 a13e 23d7 293d 2116 9b3e 568c fa3d
00000110: 6df2 223e 1fcb 88be bf10 7cbc 2301 b73d
00000120: 77ab 403e c6ec 173d c0f4 2e3e 3271 9d3e
00000130: 0aee 30bd 14ab 813e 5184 d8bc e138 c7bd
00000140: a3f5 58be ae01 80be 3ffe 91bd cb70 903e
00000150: 75c3 bf3d cefd 8b3e 34bd 63bd 6ce2 9fbd
00000160: e0dc 2c3e 2ecd 0e3e c90f 323e 51de 54bd
00000170: 13c7 50be 4745 1a3e ad32 b1bd 3ace 943e
00000180: ce24 563d 985b 8e3e cfed 783e 9109 453e
00000190: 3661 aabd bf0d 82bc 2832 a4bd 651e 81be
000001a0: 37f7 60bc ab16 a5bd 8d68 bbbd be6a 86be
000001b0: b649 67bd 198d 203e 24e8 493e 489c 2ebc
000001c0: 2e54 0a3e a6f8 8e3e 2cd2 96bc 6331 383e
000001d0: 75a4 da3d 711d 27bd e380 90be 910c 46be
000001e0: 840a 9f3e 6c8b 5c3d 92e4 fdbb 1276 64be
000001f0: 9033 983e 9487 75be 1402 843e 4a95 763e
00000200: b285 233e 9e3c 8d3d 70e9 d3bd e61e dbbd
00000210: 517a efbc 03a4 96bd 43b6 5c3e a795 89be
00000220: 794e 15be c7bf 49bd f76d 9cbe 3e32 3c3e
00000230: 3dbf 83be 2543 8a3e 3a8b 913e 2a86 d63d
00000240: f77d 513e 29cc 1ebe 99a2 9fbd 6230 913e
00000250: 8b15 99bd 98ed 84be 39bc 0d3e 0ee2 653e
00000260: a01f 93be 17e7 983e 49f3 a93e 3ff2 27be
00000270: 1919 67bd a234 4dbe d1dc 413e 3347 e0bd
00000280: 593e 8a3e aee9 e7bd 09bf 5e3e e2b2 093d
00000290: 738f 36be cda2 21be c425 acbc efff 043e
000002a0: be67 8c3e 314e 52bd 72ed ecbc cac7 313e
000002b0: f027 423e 6993 c1bd 8390 78bd 996a 9dbd
000002c0: d0f7 823e e191 25be a7b0 1abe 8fcf 873e
000002d0: 432d 6bbe e3f8 9c3e 7074 643e 36b3 823c
000002e0: 2988 96be 85e5 983c 1db8 4a3e 799f 92bb
000002f0: b119 e5bd 410f 20be 524b 853e 199d d4bd
00000300: 8dcc 63be 749b 1a3e 53fa 80be 3751 8bbe
00000310: 9322 963e 5742 1a3e 7918 a83e b772 d9bc
00000320: e1ba 993e 87e5 1b3e f73e 813e fd38 11be
00000330: 410e 883e bed1 d6bd 4147 663e 7d36 41be
00000340: b107 46be 7a41 ccbd 290f 613e 7903 3e3e
00000350: 1e3b 07be de1e 21ba 1322 ca3c 3243 653e
00000360: f210 c33d 8dee 92be d11f e3bd a9e3 a83e
00000370: 32f1 523e 9f24 19be bdb9 d1ba c51f b43c
00000380: 070c 88be 0cc4 62be 5b61 88be fc62 9dbe
00000390: 9d8a 943e 493e 2f3e ef18 a1bd d1dc 103e
000003a0: 6243 b6bc e24a 883c 2726 893e 2a4f 4bbe
000003b0: 7484 943e ecc4 91be 5b65 afbd 998c 76be
000003c0: e4bc 16be 23cf e43d f6d9 66be 37a5 133e
000003d0: 1c24 24be 6390 0a3e a77b 733c b809 eb3d
000003e0: 56dc ea3d cd3f 1abe 230a abbd 443b 3e3e
000003f0: 226e ea3b 6332 a03e 5ca1 9a3e 50a2 323e
