ultra96/weights_3dance_pos/weight_1.npy (npy, 4224 bytes, 1 tensors)

array f4 [32, 32]
0.1791657 -0.02692196 -0.0876428 -0.3106375 -0.04760584 -0.12459019 0.051317204 0.25796115
0.08228948 0.02458088 -0.25704008 -0.19201684 0.060621556 0.084815055 0.23493418 -0.14291435
0.13039865 -0.29303423 0.112985924 -0.055005606 0.016069746 0.21373104 0.30568933 0.22281371
0.32705247 0.10846612 -0.20465179 0.12751503 0.12512402 0.036183536 -0.20960008 0.1927403
0.33411518 0.19290976 0.39598364 -0.11981543 -0.23895466 0.30267456 0.3331525 -0.09216858
-0.26974222 -0.13530387 0.2511845 -0.25956407 -0.044616897 0.3226347 0.037944105 -0.14495558
-0.29979777 0.027572267 0.12594973 0.09042617 0.24442406 0.34983817 -0.20055683 -0.13145046
0.2770862 0.105761394 0.29404342 0.3151086 0.16135064 0.2793311 -0.091253035 -0.2662537
0.28744397 0.1376796 0.34729034 0.18146218 0.059650447 0.03609208 -0.16362631 -0.20552625
0.22691979 -0.046509564 -0.16357328 -0.31629092 0.16497877 -0.010924919 -0.07204974 -0.28575116
-0.1956263 -0.32986388 -0.26417544 0.2120169 -0.21653894 -0.19409359 0.07690539 -0.32851526
-0.08181705 0.29594162 0.17689104 0.003813899 0.12638077 0.3512962 0.10439833 -0.14708056
0.3554624 -0.26840648 0.20905446 -0.02282975 -0.06523206 0.33506808 0.36591923 0.27584213
-0.01041809 0.19435306 0.30777103 -0.10922842 0.2518701 -0.07674149 -0.20973776 -0.19795108
-0.23828566 0.19920047 -0.21163958 -0.21731898 0.31848466 0.22791117 -0.10678074 0.37514028
-0.24553336 -0.33529562 0.054957543 0.0007518697 -0.056584723 0.2745957 -0.24428998 -0.29682413
-0.22845273 -0.18802835 -0.12286716 -0.10468824 -0.25931522 0.39125985 0.0014154556 0.15224193
0.14627081 0.05483776 0.014184225 -0.37689295 -0.16251108 0.32488233 -0.10563115 -0.029135223
-0.080580615 0.16894402 -0.1210243 -0.21933046 0.29912657 0.113350905 0.10737923 0.33281147
0.049732476 -0.08607384 0.10781159 -0.21327786 -0.11980953 -0.066136606 -0.1184266 -0.16976106
0.23651868 0.1278292 -0.026626665 0.113848515 -0.07455451 0.28118747 -0.046727803 -0.27019796
0.25677356 0.36171076 0.069869824 -0.249721 -0.07662349 0.15796876 -0.2284576 0.1611913
0.0016477028 -0.28183556 -0.06617317 0.32418957 0.085423656 0.32980978 0.39565226 -0.2128848
0.17381147 -0.048483457 0.3424821 0.038171828 -0.16897123 -0.10557602 -0.27209654 -0.11487617
-0.21477553 0.24385525 0.08073578 0.22689651 -0.024951722 0.36442327 -0.006254602 0.0012937182
0.016401874 0.10002684 0.1380577 -0.33336768 -0.32851154 0.087055996 -0.15853734 -0.08987145
0.06113319 -0.23838325 -0.3936421 -0.22035237 0.13719705 -0.080555804 -0.042255104 -0.09625732
0.268845 0.234381 0.18361989 -0.2279682 0.33352387 0.12050775 -0.28599262 0.25026527
-0.033226736 0.00018948557 0.1629399 0.35188228 0.15163918 0.23803593 0.13543805 0.18113118
0.068323 0.054190964 -0.31250075 0.35313967 0.23216365 -0.14011404 -0.19490202 0.1518456
0.090511955 0.24976227 0.31610128 -0.08068102 0.015325102 0.22978882 0.008441368 -0.048341602
-0.15689312 0.18360229 -0.09426099 -0.15231968 -0.28715888 -0.24633098 -0.1788068 0.19601937
00000000: 3777 373e 718b dcbc 117e b3bd e10b 9fbe
00000010: 57fe 42bd 2429 ffbd fd31 523d 7c13 843e
00000020: 6387 a83d d75d c93c c29a 83be 10a0 44be
00000030: 4f4e 783d 84b3 ad3d 9692 703e 2458 12be
00000040: 3987 053e 9508 96be 2a65 e73d 8f4d 61bd
00000050: b3a4 833c 4fdc 5a3e 5083 9c3e 4729 643e
00000060: 6c73 a73e 7c23 de3d 3d90 51be 4d93 023e
00000070: 8320 003e 3035 143d 67a1 56be b75d 453e
00000080: 2511 ab3e 238a 453e 5ebe ca3e cb61 f5bd
00000090: 88b0 74be 29f8 9a3e f792 aa3e e1c2 bcbd
000000a0: a71b 8abe 198d 0abe 419b 803e 95e5 84be
000000b0: 35c0 36bd 6030 a53e 476b 1b3d 3c6f 14be
000000c0: 187f 99be 3cdf e13c f7f8 003e 5b31 b93d
000000d0: 4d4a 7a3e fd1d b33e c55e 4dbe f39a 06be
000000e0: 3ede 8d3e 6e99 d83d dc8c 963e ea55 a13e
000000f0: 1a39 253e 7c04 8f3e dfe2 babd 6852 88be
00000100: db2b 933e e2fb 0c3e 0ad0 b13e 39d1 393e
00000110: 0754 743d 4ad5 133d a88d 27be 7975 52be
00000120: a95d 683e d080 3ebd c17f 27be e2f0 a1be
00000130: 32f0 283e 6efe 32bc d08e 93bd fa4d 92be
00000140: 4352 48be ebe3 a8be 0142 87be f51a 593e
00000150: 62bc 5dbe 78c0 46be 9380 9d3d 2733 a8be
00000160: b38f a7bd a985 973e ed22 353e 9bf2 793b
00000170: f669 013e 18dd b33e cbce d53d 499c 16be
00000180: 2bff b53e 936c 89be 5f12 563e 7505 bbbc
00000190: 6398 85bd 0b8e ab3e c459 bb3e 2e3b 8d3e
000001a0: a3b0 2abc 7d04 473e 2a94 9d3e 26b3 dfbd
000001b0: 1ef5 803e a42a 9dbd 7fc5 56be b0b3 4abe
000001c0: 2801 74be 35fb 4b3e 0cb8 58be de88 5ebe
000001d0: 6c10 a33e 8c61 693e dcaf dabd 6312 c03e
000001e0: 196d 7bbe deab abbe 291b 613d 1f19 453a
000001f0: 62c5 67bd cf97 8c3e 2727 7abe 55f9 97be
00000200: 83ef 69be 818a 40be c7a1 fbbd ca66 d6bd
00000210: f7c4 84be 3653 c83e cf86 b93a 4fe5 1b3e
00000220: 04c8 153e 8f9d 603d f464 683c 1df8 c0be
00000230: 4e69 26be fa56 a63e 2555 d8bd feac eebc
00000240: 7307 a5bd a9ff 2c3e 97db f7bd 2a98 60be
00000250: 1e27 993e 8524 e83d a4e9 db3d 4466 aa3e
00000260: 48b4 4b3d 7b47 b0bd 53cc dc3d 8365 5abe
00000270: b35e f5bd a172 87bd a589 f2bd d8d5 2dbe
00000280: f431 723e a8e5 023e 2a20 dabc 6929 e93d
00000290: 09b0 98bd cef7 8f3e a765 3fbd 6357 8abe
000002a0: d377 833e 2732 b93e e917 8f3d ddb6 7fbe
000002b0: c7ec 9cbd 90c2 213e caf0 69be 550f 253e
000002c0: bbf7 d73a c04c 90be cd85 87bd 2dfc a53e
000002d0: 99f2 ae3d d4dc a83e ef92 ca3e 79fe 59be
000002e0: a2fb 313e 9796 46bd d059 af3e 105a 1c3d
000002f0: cb06 2dbe 3e38 d8bd 3d50 8bbe 3344 ebbd
00000300: 1eee 5bbe 31b5 793e cd58 a53d 8f57 683e
00000310: 8e67 ccbc b095 ba3e 68f3 ccbb fb91 a93a
00000320: 395d 863c dfda cc3d ff5e 0d3e 2baf aabe
00000330: aa32 a8be 6a4a b23d 9d57 22be 860e b8bd
00000340: cc66 7a3d bd1a 74be 758b c9be 0da4 61be
00000350: 627d 0c3e 71fa a4bd b013 2dbd 8f22 c5bd
00000360: 0da6 893e 9301 703e da06 3c3e 7f70 69be
00000370: a4c3 aa3e c4cc f63d a06d 92be c522 803e
00000380: c218 08bd a5b0 4639 b8d9 263e ea29 b43e
00000390: 4d47 1b3e b1bf 733e 46b0 0a3e 747a 393e
000003a0: eeec 8b3d 58f7 5d3d 1900 a0be b9ce b43e
000003b0: 4fbc 6d3e 0e7a 0fbe 6594 47be 6a7d 1b3e
000003c0: 555e b93d aec1 7f3e 07d8 a13e 173c a5bd
000003d0: 2316 7b3c c34d 6b3e aa4d 0a3c d801 46bd
000003e0: 97a8 20be 3d02 3c3e e80b c1bd b1f9 1bbe
000003f0: 7d06 93be 303e 7cbe 2119 37be 4db9 483e
