ultra96/weights_3dance_pos/weight_0.npy (npy, 12928 bytes, 1 tensors)

array f4 [100, 32]
00000000: 806b c83d e08f 293d c849 153d 5041 00bc
00000010: 384b e2bc 4885 333e 4ce6 da3d 40e7 2d3d
00000020: ec88 4d3e d412 c13d fef1 4cbe bc81 1d3e
00000030: 0ce3 0bbe 54e9 12be f0b3 163c 6699 3f3e
00000040: df01 fdbd 4875 d23d f074 513d 084f 43be
00000050: 37a3 bebd 18ea 303e 6872 ccbd 28bf 84bd
00000060: c8bd f1bc c0ec 543d 2ffb dcbd 0af0 30be
00000070: f010 c73d 1451 113d e975 bdbd e8e6 3f3e
00000080: 747d 98bd 9a90 12be 8602 6bbe 3e19 1abb
00000090: dd48 143e e198 0bbe 78d7 5cbe faba 173e
000000a0: 0a27 9dbd 2966 f2bd 4915 81be f0d0 843e
000000b0: e7d3 95be 57d1 b1ba f93f 673e 61c3 a5bc
000000c0: 0ce0 3c3d 5346 a9be d2d2 a23e c795 cfbc
000000d0: ce78 1b3e 3415 18bb 1b72 0abe 06a0 9abd
000000e0: 6bb3 02bc 1864 d4bc 040d 1d3c bac6 6c3e
000000f0: da12 8c3e 26b8 673d fab4 a6be bb23 3c3e
00000100: 729f 193e c331 b9bd 7436 9b3d 3bd0 c2bd
00000110: ac13 1e3e c8f7 333e 73dd 1fbe 376c 21be
00000120: c718 35be 6bc4 49be 5cb4 a43d a122 3cbe
00000130: c2e4 3abe 628f 383e bc01 fe3d 3c4e 01be
00000140: 7d31 f1bd 9e1c 4dbe 2cd7 ef3d 50e4 b0bd
00000150: da68 bcbd 28bb 1bbd 7875 04bd e4b7 bd3d
00000160: 6853 c03c 9017 923d 90c5 2dbd 9840 94bc
00000170: e0f4 66bd 1064 ab3c 1a7e eebd 4fd0 3ebe
00000180: d2fb afbd f28f 4b3e b45f 0fbe 2df2 24be
00000190: 2ec5 cdbd 7e70 aebd 6270 4fbe 64c0 3dbd
000001a0: a58b 4dbe 4fc9 27be acb6 b53d c893 b13d
000001b0: e08e 223c 7c6a 003d ac23 5cbd ec6b c1bd
000001c0: 3ccf b73d d84c 06be 3070 43bd 4f3d bfbd
000001d0: e073 af3d 6cb8 5dbd d884 a73d 68cd c53d
000001e0: a8f3 4c3e 1870 34be d8de 06be e271 91bd
000001f0: 70df b0bd ec27 4d3e 90ae d6bd 6831 1c3e
00000200: e1c1 da3c dbde e93c d801 7d3e ac10 033e
00000210: f8fc 25bd d10b 423e 4d86 843e 8ed0 a6be
00000220: aac2 bebd 44ad 883e 92de a23c 3f63 ac3d
00000230: 7b86 34be b151 4bbe 4160 21be 57cb 6bbd
00000240: e467 e6bd 5933 ec3d 40e7 aa3d 57c2 91bc
00000250: a342 85be 561f 903e 6faf 9abe 56ca 003e
00000260: f969 90bd b018 80be a1ef a4bc 15e2 92be
00000270: 1d8d a73d e4f1 dabc 6f28 9dbd 88f0 793e
00000280: 1ecb a0bd 5c70 53bd ccb5 993d f87e babd
00000290: 3c86 3bbe 46f5 423e e88d 1d3d 3bb2 29be
000002a0: fc0b ea3d 6c20 1fbe 2744 27be d466 543e
000002b0: 9303 0fbe 44dc 583e e2ad 20be 58ec e13c
000002c0: e893 f13d d0ae bc3d 80ed 4fbb 9888 98bd
000002d0: 807f 10bd a4df 023d 0c39 233e cedc 08be
000002e0: bc84 123e 11ef 53be f2eb 97bd 64c9 6bbd
000002f0: 78bb 9dbd 4fcb 3bbe b2b5 593e 736a febd
00000300: 05e1 3ebe 4859 90bd c8a1 9bbd ed5f e4bd
00000310: e0ea 3b3d e0c6 293c e4f2 00be f0d8 d13c
00000320: 69aa 19be 284a a73c 4cc7 593e 5828 4abd
00000330: c84f f9bc 902c 613d 2c9b 0b3e aced c13d
00000340: cced 3dbe 20e3 da3d c6b6 173e e083 713d
00000350: e09d 893d f034 0d3e da07 a1bd eb6e 50be
00000360: 60af 633c 11d0 39be 16f6 88bd 1430 163d
00000370: a92b 05be 1cfb a0bd 7093 18bc 1faa 40be
00000380: bbcd 43be 5483 37be 5dfd 5a3e 8d73 09be
00000390: b9ac 273e 934f 253e 73fc 8e3e d801 f3bd
000003a0: c38b 0ebe 1921 bbbc 5027 493e 31d0 1cbe
000003b0: f4c2 e3bd f63d a6bd 3d0f 5cbd 1648 dc3d
000003c0: 0ae4 143c ae1f f53d 93b2 09bd c1a6 20be
000003d0: f76d dfbd 108f b23d 99e3 983d 5e7f 393d
000003e0: 6874 5d3e 8ec3 cabd 1020 513e 2ac1 41be
000003f0: e44a f33d 818f 3cbd 0547 4b3e 9197 4e3e
0.09786129 0.041396976 0.036447316 -0.007828072 -0.027623758 0.17531312 0.10688457 0.042456865
0.20071763 0.09427419 -0.20014188 0.15381521 -0.1366083 -0.1434682 0.009198174 0.1871086
-0.123538725 0.10276276 0.05113691 -0.19073117 -0.093084745 0.172768 -0.09982759 -0.06481773
-0.02950944 0.051983595 -0.10790097 -0.17279068 0.097200274 0.035477713 -0.09251005 0.18740427
-0.07445803 -0.14312974 -0.22950181 -0.002351358 0.1448092 -0.13632537 -0.2156657 0.1481742
-0.07673462 -0.11835892 -0.25211552 0.25940657 -0.2926323 -0.0013566416 0.22582997 -0.020234765
0.046112105 -0.33061466 0.31801468 -0.025339974 0.15182802 -0.0023205997 -0.1352009 -0.07550053
-0.007977347 -0.025926635 0.009585623 0.23122683 0.27358133 0.056572102 -0.3255995 0.18373005
0.1500223 -0.090426944 0.075787455 -0.09512373 0.15437192 0.1757499 -0.1561182 -0.15763937
-0.17685233 -0.19703834 0.08042213 -0.18372585 -0.18251327 0.18023446 0.124026746 -0.126275
-0.11777017 -0.20030448 0.11710963 -0.08637297 -0.09199686 -0.038020283 -0.03233859 0.0926359
0.023477271 0.071334004 -0.04242474 -0.018097207 -0.056385875 0.020921737 -0.11645146 -0.18634151
-0.08592953 0.1987913 -0.14001352 -0.16108008 -0.10047375 -0.0851755 -0.20257714 -0.046326056
-0.20072801 -0.16385387 0.088727325 0.08670765 0.009921759 0.03135155 -0.053744957 -0.094444126
0.08975074 -0.13115251 -0.047714412 -0.093378656 0.08567023 -0.054130957 0.08179635 0.09658319
0.20014822 -0.17620885 -0.13170946 -0.071017995 -0.08636367 0.2003476 -0.10482514 0.15253222
0.026703777 0.028548649 0.24707735 0.12799329 -0.040524453 0.1894982 0.25883713 -0.3258099
-0.09314473 0.2669469 0.01988152 0.08417367 -0.17629425 -0.19855382 -0.15759374 -0.057566967
-0.11250284 0.11533231 0.08344889 -0.017792864 -0.26027402 0.28148907 -0.3021197 0.12577185
-0.07051463 -0.25018835 -0.020133795 -0.28688112 0.08181212 -0.02672667 -0.07673728 0.24408162
-0.078512415 -0.051620826 0.07505378 -0.091062486 -0.18312925 0.19038877 0.03846541 -0.16571896
0.11428067 -0.15539712 -0.16334592 0.20742351 -0.13966207 0.21177775 -0.15691331 0.027578518
0.11795789 0.0921303 -0.0031727254 -0.07447928 -0.035277843 0.03195156 0.1593973 -0.1336548
0.14308447 -0.20696665 -0.0741805 -0.057565108 -0.077017725 -0.18339275 0.21260718 -0.12422647
-0.18640526 -0.07048279 -0.07599217 -0.11151109 0.04587829 0.010362357 -0.12592655 0.02561614
-0.15006413 0.020421103 0.21267432 -0.04935488 -0.03043355 0.05497414 0.13633412 0.094691604
-0.18547744 0.10687852 0.14815816 0.058963656 0.067195654 0.13789725 -0.07862826 -0.20354812
0.013896793 -0.18145777 -0.06687562 0.036666945 -0.13004936 -0.07860395 -0.009312496 -0.18814896
-0.19121449 -0.17921191 0.21385713 -0.13422985 0.16374482 0.16143636 0.27926978 -0.11865586
-0.13920502 -0.02284293 0.19643903 -0.15313794 -0.11121169 -0.08117287 -0.05372547 0.10755937
0.009087572 0.11968933 -0.033617567 -0.15688612 -0.10909646 0.08718693 0.07465286 0.045287482
0.21626437 -0.0990058 0.20422387 -0.18921342 0.11879519 -0.046035293 0.1985131 0.20175005
