ultra96/weights_dance_sat_40_mav_10_new/bias_0.npy (npy, 640 bytes, 1 tensors)

array f4 [128]
00000000: dddf 29bd 7ac6 893c 8d65 973d 1c3e 7b3c
00000010: 0d08 ad3d 93d0 3e3c c925 c03c 2a84 82bd
00000020: f6f8 963c 4d19 553d 8263 333d 1920 1a3d
00000030: e80d d23b 1649 703d aff4 9a3d f757 933c
00000040: 4523 dabb 276e ae3d 841d d13b 067e 2cbd
00000050: 1555 7d3d fc9a 6cbd 4e0e 433d 7b96 b33d
00000060: 2011 8cbb 824c 1e3d c0d8 133d 6881 343d
00000070: 2c38 cd3c 482b 7c3c 6e2b 8dbd 0b87 89bb
00000080: 5e24 26bd 3512 fa3b efad 8fbd 9fb5 ca3d
00000090: 3931 ef39 0543 723d 4a35 93bc 907c ef3c
000000a0: 0d92 393d 062b bbbd ec3b 7b3d bbab b93c
000000b0: ca51 903c 97b0 4a3c 93b1 833c 941f 883c
000000c0: de7c 8bbc cb89 1639 f93d 78bb a605 33bc
000000d0: 9786 a7ba aaca 1d3c d3ae 103d eb5f fa3c
000000e0: af5c c23d b722 683d e45b b4bc 96d9 84bd
000000f0: dc6a 7c3d 8c5c 37bd a6cf 48ba 2195 8b3d
00000100: 06f2 adbc 366e 233c b0f1 8a3a 272a c43c
00000110: 9c17 c4bc 463f 973b 643a 5b3d f129 803c
00000120: 9bb0 2c3d bc66 49bd 4b1a 963d b5f4 ce3b
00000130: 707e c33c b805 9c3c 3dca c5bb f723 1d3d
00000140: 74f5 773d 1a57 3c3d 13aa 953c 4f14 dabc
00000150: db05 373d 21fa 413d 7e37 933d 5494 333d
00000160: 2813 dfbb 8ec9 023e c027 833c 7c2a 293d
00000170: f030 76ba f186 dd3c 9469 863d fc35 0abc
00000180: 6426 8ebd e7e6 83bb 3615 12bd 6983 033d
00000190: dc39 c43c f66a 993c 795e c23b 22a1 41bd
000001a0: 25df 853b 20ed 7a3d 4e41 433d 1e9c 85bc
000001b0: a565 883a 31a7 d53c e990 a13d ac6e 883d
000001c0: 43c4 573d 7a3d 973d bb8b 093c 5ebe a7bb
000001d0: 0450 133d 9c15 b33d 293a 30bc 269d 523d
000001e0: a193 c13c 875f 28bc 237a 343c a2a8 0ebc
000001f0: d0da a4bc 35db 393d 4a5c 2bbd 31b3 f93c
-0.04147326 0.016818274 0.07392416 0.015334632 0.08448801 0.011646408 0.023455517 -0.063728645
0.01842926 0.05202608 0.04379607 0.037628267 0.006410349 0.05866345 0.07566201 0.01798628
-0.0066570365 0.08517104 0.0063816924 -0.042112373 0.06184872 -0.057764992 0.047621064 0.08768936
-0.0042745024 0.038647182 0.03609538 0.044068724 0.025051199 0.015391178 -0.06893049 -0.0041970066
-0.040562026 0.007631565 -0.07015597 0.09897923 0.00045622306 0.059145946 -0.017969746 0.0292342
0.0453053 -0.091390654 0.061336443 0.022664895 0.017617125 0.012371204 0.016075885 0.01661662
-0.017027315 0.00014356447 -0.0037878735 -0.01092664 -0.00127812 0.009630838 0.035322975 0.030563315
0.09490334 0.05667373 -0.022016473 -0.06486814 0.061625347 -0.044765994 -0.00076603366 0.068155535
-0.02123357 0.009975007 0.0010600593 0.023945881 -0.02393704 0.004615697 0.053522483 0.015645
0.04216061 -0.04917024 0.07329234 0.0063157924 0.023864001 0.019045696 -0.0060360716 0.038364377
0.060536817 0.045981504 0.018269574 -0.026621012 0.04468332 0.047357682 0.07188319 0.04384263
-0.0068077035 0.127722 0.016010165 0.041300282 -0.00093914475 0.027041884 0.06563106 -0.008435722
-0.06940916 -0.0040253284 -0.03566476 0.032107744 0.02395337 0.01872776 0.005931672 -0.04727281
0.004085439 0.061261296 0.0476697 -0.016309794 0.0010406269 0.0260807 0.078889675 0.06661734
0.052677404 0.073847726 0.008395131 -0.005119129 0.03596498 0.08744356 -0.010756054 0.0514194
0.023629965 -0.010276682 0.011015448 -0.008707197 -0.02012387 0.045375068 -0.04183606 0.030480953
