ultra96/weights_dance_sat_40_mav_10_new/bias_1.npy (npy, 640 bytes, 1 tensors)

array f4 [128]
0	0xbc17e3aa	-0.009270588
1	0x3d423570	0.047414243
2	0x3c6d05e8	0.01446674
3	0xbbfb359d	-0.0076663033
4	0x3b384b06	0.002812089
5	0x3ce33431	0.027734848
6	0xbb8578bd	-0.004073231
7	0x3cf3f7a9	0.02978118
8	0xbb1614e5	-0.0022900638
9	0x3d2dba6b	0.04241411
10	0xbd06b42b	-0.032886665
11	0x3d5fe5f5	0.054662663
12	0x3cb94a63	0.022618478
13	0x3cfa27b1	0.030536504
14	0xbc565f77	-0.013084284
15	0x3b84920f	0.004045732
16	0x3cab3dae	0.020903435
17	0x3c90b0e2	0.01766247
18	0x3ba0be3a	0.0049054893
19	0x3cd330c9	0.025780099
20	0x3c1e331f	0.009655743
21	0x3c4a80aa	0.012359777
22	0xbc99b1d5	-0.018761555
23	0x3c6b81c2	0.014374198
24	0xbcb53c9e	-0.022123631
25	0xbc12c2ea	-0.008957604
26	0x3d108fe9	0.035293493
27	0xbd01a293	-0.031649183
28	0xbd847b43	-0.06468823
29	0xbc608db7	-0.013705662
30	0xbcb28010	-0.02178958
31	0x3cd1e37d	0.02562117
32	0x3d5bf5c3	0.053701174
33	0x3c7d3c09	0.015456208
34	0xba9ecb21	-0.001211498
35	0x3c74e3e7	0.014946914
36	0x3c95d9dc	0.01829236
37	0xbcd28985	-0.02570034
38	0xbabfc017	-0.0014629391
39	0x3cb11e0b	0.02162077
40	0x3b50c413	0.003185515
41	0xbd4ba80e	-0.049720816
42	0xbc1ec696	-0.009690901
43	0x3d6a5205	0.057207126
44	0xbab8c7da	-0.0014097646
45	0x3c77cc06	0.015124327
46	0x3cf383a7	0.029725863
47	0xbcb613ce	-0.02222624
48	0xbcc9634d	-0.024583483
49	0xbc966df0	-0.01836297
50	0x3be5d0db	0.007013423
51	0xbb3e2ce9	-0.0029018468
52	0x3c28df17	0.010307095
53	0x3ce0fcf8	0.027464375
54	0xbb6007c7	-0.0034184323
55	0xbd1cc628	-0.038274914
56	0x3d945080	0.07241917
57	0xbcc8bf85	-0.024505386
58	0x3c7de0c5	0.015495484
59	0xbc173b18	-0.009230398
60	0x3bd45199	0.0064794538
61	0x3d711e19	0.058866594
62	0xbcdb348f	-0.02675846
63	0x3c8cfec3	0.017211324
64	0xbbde243d	-0.0067792223
65	0x3d44d56a	0.04805509
66	0x3c98f16c	0.018669806
67	0xbd06032a	-0.03271786
68	0xbc4513b3	-0.012028622
69	0x3d2f65e5	0.042821784
70	0xbc59a94a	-0.013284991
71	0xbcaa2a7c	-0.020772211
72	0x3cd56974	0.02605126
73	0x3d4f8d33	0.050671767
74	0xbca3e195	-0.020005027
75	0x3d237291	0.03990418
76	0x3ca35376	0.019937258
77	0x3cd45fcb	0.025924584
78	0xbbf75913	-0.0075484603
79	0x3d844a95	0.06459538
80	0x3c0faaea	0.008768776
81	0xbcc646a2	-0.024203602
82	0x3d43212c	0.047639057
83	0xbd27e402	-0.04098893
84	0x3b23c21a	0.002498752
85	0x3c7600f0	0.015014872
86	0x3d609611	0.054830614
87	0x3bdeef97	0.0068034637
88	0x3911129e	0.00013835213
89	0x3d4616de	0.04836165
90	0x3d588c19	0.052867983
91	0xbabc86c8	-0.001438343
92	0x3d4bac51	0.04972488
93	0x3cd77592	0.02630118
94	0x3d121ca8	0.03567186
95	0xbb8ba96c	-0.00426214
96	0x3a85e107	0.0010214158
97	0xbcfb55b8	-0.030680522
98	0x3d427d45	0.047482748
99	0x3d07ce51	0.033155743
100	0xbc2112b2	-0.0098311175
101	0xba2c68ef	-0.00065769156
102	0xbd22999b	-0.03969727
103	0x3ca734ed	0.02041098
104	0x3cbcf519	0.02306609
105	0xb9904467	-0.00027516784
106	0xbc886173	-0.01664803
107	0xbc799302	-0.015232803
108	0x3d889097	0.06668203
109	0x3cf07bde	0.02935594
110	0x3d8f86b1	0.07008112
111	0x3dae0e70	0.084988475
112	0x3d0939ec	0.033502504
113	0xbcc06782	-0.023486856
114	0x3d370a31	0.044687454
115	0x3a88f366	0.0010448515
116	0xbd11e4c2	-0.03561855
117	0x3da04279	0.07825179
118	0xbc48a154	-0.012245495
119	0x3bc531bd	0.006017892
120	0x3cfdf4e7	0.031000568
121	0xbd35e73d	-0.04440998
122	0x3d5b0f37	0.053481307
123	0xbd07eb42	-0.033183344
124	0x3d28617d	0.041108597
125	0x3c8530de	0.016258653
126	0x3d467ad4	0.04845698
127	0x3d078b9e	0.033092134
