ultra96/weights_dance_sat_40_mav_10_new/weight_2.npy (npy, 65664 bytes, 1 tensors)

array f4 [128, 128]
000000 6e af b9 bd f9 b4 10 3e c3 4f e2 bc a9 ea 59 bd
       -0.09066664 0.14131536 -0.027625924 -0.053202305
000010 b3 ad af 3d 82 79 cc bc 00 99 93 3d 48 46 e7 bb
       0.08578052 -0.024960283 0.07206917 -0.0070579387
000020 5f 42 02 bd f3 90 5f bd b7 0d 28 3e 33 26 a0 3c
       -0.031801578 -0.054581594 0.16411482 0.019549465
000030 3b 30 45 3e ec 3f b3 bd 5d a1 ac bc d7 f8 f7 3c
       0.1925668 -0.087524265 -0.021073038 0.030270023
000040 e4 5e 94 3d 52 2d cd 3d 22 09 c8 3d 35 8b 0a be
       0.072446615 0.1001841 0.09767367 -0.13529666
000050 db a1 d2 bc d3 b7 c0 bd d2 09 37 bd b5 ea 4d 3d
       -0.025711944 -0.09410062 -0.0446871 0.050272662
000060 d7 24 cc bd 37 53 15 be 02 46 ff 3d 69 d6 7f bd
       -0.09967964 -0.14582525 0.12464525 -0.062460337
000070 75 0a b1 3d 06 f0 1f be 53 de 4e 3d 87 31 0b be
       0.08644573 -0.15618905 0.050504994 -0.13593112
000080 00 31 a1 3d 60 96 17 3e 70 98 a0 3d 14 2b 01 be
       0.07870674 0.14803457 0.07841575 -0.12614089
000090 f8 82 f0 3c 4b 53 30 3d 15 e5 32 be d5 9d 32 be
       0.029359326 0.043048184 -0.174702 -0.1744302
0000a0 5e 68 3c be 58 2b 1d bd 3b ce f9 bc 92 d4 04 3e
       -0.18399188 -0.038371414 -0.030493846 0.12971714
0000b0 61 cf cb bd 7e 36 81 3e 81 f7 ed 3d 36 0c 51 3c
       -0.09951664 0.25236887 0.11619473 0.012759259
0000c0 02 8c cc bc 05 7a 11 bc 05 9e f0 bd af 4b 80 3c
       -0.024969105 -0.008879189 -0.1174889 0.015661089
0000d0 b2 ea 22 3e 01 8a 68 bd b2 b8 0d 3e 2c 3d 09 3e
       0.15909842 -0.056772236 0.13839987 0.13402241
0000e0 52 f2 07 3e 36 03 70 3d 0b 96 7d bd 74 80 27 be
       0.13276032 0.058596812 -0.06191067 -0.16357595
0000f0 e3 32 96 3e 23 40 39 3e ce 7a b9 3c 02 3d 2e be
       0.29335698 0.18090872 0.022641566 -0.1701546
000100 fc 73 19 3e ed 68 3e 3d 62 a6 55 3e d8 f0 79 ba
       0.14985651 0.046486784 0.20864251 -0.00095344847
000110 77 1d 11 bd a7 8f fa bd c7 a9 ec bb eb 90 f9 bc
       -0.03542849 -0.12234431 -0.0072223875 -0.03046461
000120 68 d5 ac bc 65 05 07 be 3d 2c a5 bd 98 aa 3f 3d
       -0.021097854 -0.13185652 -0.080650784 0.04679355
000130 a6 af c7 bd 8c 65 d1 bd 8a 90 2f bd 04 78 02 be
       -0.09750299 -0.10224447 -0.042862453 -0.12741095
000140 a6 ee b4 bc 90 9c 09 3d 5b 4f 0a 3b 15 c7 25 be
       -0.022086453 0.033596575 0.0021104428 -0.16189225
000150 e0 ab b9 3d e4 41 b4 bc c4 49 20 3e 3d d8 f6 bc
       0.09065986 -0.022004075 0.1565314 -0.030132407
000160 be 42 c3 bd 44 a3 c5 3d 10 06 2d be 3e d1 81 be
       -0.095342144 0.09650281 -0.16896844 -0.25354952
000170 fc ba 1c be 6c 9c a8 3d 2e 34 e9 bd d9 b7 67 bc
       -0.15305704 0.0823296 -0.113869056 -0.014142954
000180 9a 29 9a 3c 71 33 19 be c6 a6 8c 3d 31 ec dd 3d
       0.018818665 -0.1496103 0.06867747 0.108360656
000190 5d 0c 99 3d bd fa 5e be 3e 6f ea bd cb 47 90 be
       0.07473061 -0.21775337 -0.11446999 -0.28179774
0001a0 0a 27 b7 bd 50 28 22 bc 0a 55 a3 3d ba 46 f1 3d
       -0.08942993 -0.009897307 0.07975204 0.11781068
0001b0 30 b0 ae bd 7e 96 b1 3d 86 bf 27 3e 7b 81 3c 3d
       -0.08529699 0.08671282 0.16381654 0.04602192
0001c0 14 54 43 3e 6a 46 17 3c 0a 2f 20 be 4d 67 f5 bd
       0.19075042 0.009233097 -0.15642944 -0.11982594
0001d0 b6 a7 a4 3d 9a ba 83 3d b4 9f d5 3c 3e 97 fc 3c
       0.08039801 0.06432076 0.026077129 0.030833837
0001e0 82 b0 10 3d 14 a1 79 bd 5f e4 22 be e1 2f ad 3b
       0.03532458 -0.06094463 -0.15907429 0.0052852486
0001f0 88 a1 ef 3d 7a 6e f6 bd 9f f5 be 3d 76 c9 3d 3d
       0.117007315 -0.120327905 0.09324192 0.046334706
000200 d1 3f 02 3e e6 26 e1 bd 76 d6 f6 3d 53 ed 85 3d
       0.12719657 -0.109937474 0.12052624 0.065394066
000210 77 b4 bb 3d 92 7e 26 be 9a b5 fd 3d 2d c1 83 3d
       0.0916528 -0.1625922 0.123881534 0.0643333
000220 f3 f0 05 be 4c 93 58 3d 26 b3 2d be f9 dc 20 be
       -0.13080196 0.05287485 -0.16962871 -0.15709294
000230 e7 d7 12 3d da 31 f7 bd ad 93 14 3e 23 64 e2 bd
       0.03585043 -0.12070055 0.14509459 -0.11054256
000240 69 eb 25 3e 86 35 9d 3d c7 0d 49 bd 49 62 0d 3e
       0.16203083 0.076762244 -0.049085405 0.13807024
000250 ad 0f a0 3c fd 19 5b bd dc 67 02 be ee d4 b3 3d
       0.019538725 -0.05349158 -0.12734932 0.087808475
000260 8f 51 c4 bc 7c 9b fa 3d 06 0f a1 bc 79 99 76 bc
       -0.023964671 0.122366875 -0.019660484 -0.015051239
000270 1b 93 b1 bd 8f 56 20 bd b9 4e d3 3d d7 91 ed 3d
       -0.08670636 -0.03914505 0.103177495 0.11600082
000280 30 bf 96 bd 45 f1 ab bc d5 02 d9 3d c9 38 cf bc
       -0.07360685 -0.02098907 0.10596243 -0.025295632
000290 ec 99 5a 3d 75 1a 2c 3e 7e f8 1e 3e 97 a8 71 3d
       0.053369448 0.16806968 0.1552448 0.05899867
0002a0 5f 5b 16 3e 42 0e 7f bd ad 98 4c 3d 5e 45 cb bd
       0.14683293 -0.062269457 0.04995029 -0.0992534
0002b0 8c 93 91 3d 44 bb 29 3d b5 24 ba bd 2e 69 86 bd
       0.071082205 0.041438356 -0.090890326 -0.0656303
0002c0 ba eb 01 be 48 ad db bc ad 42 0c 3e 6e ff 44 bd
       -0.12687579 -0.026816025 0.1369731 -0.04809516
0002d0 27 b0 bf bd 13 e8 0b 3e 48 2c 26 be 33 12 60 bd
       -0.0935977 0.13662748 -0.1622783 -0.054704856
0002e0 5c 0e 91 3d 63 59 0c bd 51 05 55 3d 4b 0d e4 bd
       0.07082817 -0.034264933 0.052007023 -0.11135348
0002f0 60 ab 01 3e 27 83 35 3d 0a 41 b2 3d 68 26 35 bc
       0.1266303 0.04431453 0.087038115 -0.01105652
000300 fd cd f7 3d a9 a9 eb 3d 54 c3 cb 3d 83 62 68 3c
       0.12099836 0.115069695 0.09949365 0.014183643
000310 04 56 2f bd ed 77 1c bd 5d bb e0 3b 1f 87 61 bd
       -0.04280664 -0.038200308 0.006858273 -0.055060502
000320 d0 a4 d3 3d 32 79 a2 bd 94 2f 81 3d dc e8 5f 3d
       0.1033417 -0.079332724 0.06307903 0.05466543
000330 8d 28 ad 3d 00 f9 01 be 54 84 35 bd 67 3b 71 bd
       0.08455 -0.12692642 -0.04431565 -0.05889454
000340 2c e8 e7 bd 56 00 ab bd 17 48 62 3d 1d 79 4e bd
       -0.1132358 -0.083496734 0.05524453 -0.05040847
000350 64 ee 2f be 6d ae 04 3e 2a 6f 13 3e ef bc ea bc
       -0.17180783 0.12957163 0.14397874 -0.028654544
000360 b0 58 86 3d 36 87 90 bd da 68 b0 bd 53 55 0a 3c
       0.065598845 -0.070570394 -0.08613749 0.008443194
000370 a9 c4 40 be a4 14 e0 bd 29 68 6b 3b f9 d8 10 3e
       -0.1882502 -0.10941437 0.0035920239 0.14145268
000380 74 b2 13 bd 0f 3c 0c 3d 4e f8 18 3e eb be 85 bc
       -0.036058858 0.034236964 0.1493847 -0.016326388
000390 f6 68 b4 bc 41 c3 fb 3c 6a d6 06 3e 92 92 76 3d
       -0.022022706 0.030732753 0.1316773 0.060198374
0003a0 d4 5a 7c bd 0f 76 d5 3d cf d6 43 be 18 6d 6a 3d
       -0.061610058 0.104229085 -0.19124912 0.057232946
0003b0 c9 bb 89 3d a6 39 a2 bd 66 ad 1c 3d 39 d4 fc 3d
       0.0672527 -0.07921152 0.038251303 0.12345166
0003c0 5a 2e 7c bc f0 ba 7b bd a7 55 a7 bb 0d e0 e6 3d
       -0.01539191 -0.061457574 -0.005106646 0.11273203
0003d0 99 c0 41 3b cc d7 db 3d 87 4d 10 3e da 93 0f be
       0.002956426 0.10734519 0.14092074 -0.14021245
0003e0 ea cf 0b bd 13 39 b4 bd 73 2d f4 3d 0a bd b4 3d
       -0.03413383 -0.087999485 0.11922731 0.08825119
0003f0 32 a7 2a bd f3 ec b8 3d de 42 9e 3c 34 7e 07 3e
       -0.041663356 0.090295695 0.019318994 0.13231736
