ultra96/weights_dance_sat_40_mav_10_new/weight_4.npy (npy, 6272 bytes, 1 tensors)

array f4 [128, 12]
0	0xba9593df	-0.0011411867
1	0x3da95efe	0.082700714
2	0x397ca8a4	0.00024095416
3	0x3e2477b8	0.16061294
4	0x3e47a4fc	0.1949653
5	0xbe8aa4e3	-0.27078924
6	0x3e660d51	0.22466017
7	0xbdf3ef1f	-0.11910843
8	0x3df02575	0.11725894
9	0x3df77a2a	0.12083848
10	0x3e2cddd2	0.16881493
11	0x3b552f1d	0.0032529302
12	0x3c0cbf69	0.008590558
13	0x3dfa6811	0.1222688
14	0xbca994fc	-0.020700924
15	0xbe7505d7	-0.23928009
16	0x3b5e6762	0.0033936133
17	0xbd949bf9	-0.07256312
18	0x3dd00fe6	0.101592824
19	0x3db3f8ca	0.08787687
20	0xbd4e6267	-0.050386813
21	0x3e4bfae6	0.19919929
22	0xbe9b997b	-0.30390534
23	0xbe657ad3	-0.22410135
24	0xbd9d83da	-0.07691164
25	0xbccbe860	-0.024891078
26	0xbd5fb60a	-0.054616965
27	0xbe17d635	-0.14827807
28	0xbe3b7a6d	-0.1830842
29	0x3e4cba72	0.19992998
30	0xbe6bdeac	-0.23034161
31	0xbdaec7b7	-0.08534186
32	0x3d93bd4e	0.072138414
33	0x3dbc7764	0.092024595
34	0xbcc8fc0b	-0.024534246
35	0xbd00adfe	-0.031415932
36	0x3e5aeb96	0.21378931
37	0xbe601b15	-0.21885331
38	0x3db5686a	0.08857806
39	0xbe809ac9	-0.25118092
40	0xbe532b98	-0.20622098
41	0xbda9c021	-0.08288599
42	0xbdbd74dd	-0.092508055
43	0x3e473267	0.1945282
44	0x3bfd331f	0.0077270414
45	0xbdec4f15	-0.11538521
46	0xbe56a0f1	-0.20959832
47	0xbdf849f9	-0.12123484
48	0x3e0bbaf7	0.1364554
49	0xbe7163e4	-0.23573261
50	0x3ca642ca	0.02029552
51	0x3e3e970d	0.18612309
52	0xbbc5a549	-0.0060316664
53	0xbe6b3025	-0.22967584
54	0xbda3fd62	-0.08007313
55	0x3e016cf2	0.12639216
56	0x3d54f0b1	0.051987354
57	0x3e65c4e6	0.22438392
58	0xbe407ea1	-0.18798305
59	0xbe1359ef	-0.14389776
60	0xbd91c613	-0.07117858
61	0xbce73507	-0.028223528
62	0x3e2bea31	0.16788556
63	0x3dda6a14	0.10664764
64	0x3dd18199	0.10229797
65	0x3dc486f4	0.09596053
66	0xbddb2c8c	-0.10701856
67	0x3d9bb0dd	0.07602093
68	0xbd6aa7a9	-0.0572888
69	0xbe4790a6	-0.19488773
70	0xbd970120	-0.073732615
71	0xbe8921ce	-0.26783603
72	0xbdd4520b	-0.10367211
73	0x3dbbf6ba	0.09177919
74	0x3da94f6f	0.08267104
75	0xbd8fa1a2	-0.07013251
76	0x3e0b843e	0.13624665
77	0x3d8100d4	0.06298986
78	0xbd7d1893	-0.061791014
79	0x3dae99af	0.085254066
80	0x3dfafb28	0.122549355
81	0x3d6c009c	0.05761777
82	0xbd397a42	-0.04528261
83	0x3e7fdb15	0.24985917
84	0xbc8b5f2a	-0.017013151
85	0xbd59f14a	-0.053208627
86	0xbe300da1	-0.17192699
87	0x3d9a1dc0	0.075252056
88	0x3d85035a	0.0649478
89	0x3c81680e	0.015796687
90	0xbcd1281e	-0.025531825
91	0xbdd7bf9a	-0.10534592
92	0x3d170711	0.036871973
93	0xbd0e1b57	-0.034694042
94	0x3def09b4	0.116717726
95	0xbe4950b1	-0.19659688
96	0x3cee4731	0.029086681
97	0x3d8d0ee7	0.06887608
98	0x3e006660	0.12539053
99	0xbe944c19	-0.28964308
100	0x3dab8753	0.083754204
101	0xbe5fae80	-0.2184391
102	0xbbff584f	-0.0077925096
103	0xbc88bd4a	-0.016691823
104	0xbe15c053	-0.14624147
105	0xbd4bc965	-0.04975261
106	0xbe13018c	-0.14356059
107	0x3e5ef703	0.21773915
108	0x3e0b1a6b	0.13584296
109	0x3dce5c2d	0.10076175
110	0xbdb49226	-0.08816938
111	0xbe6c2315	-0.23060258
112	0x3e4246ab	0.1897227
113	0xbdc8f844	-0.09812978
114	0xbe1ddbca	-0.15415874
115	0xbda70740	-0.0815568
116	0xbce1f974	-0.027584769
117	0xbbfbf446	-0.007689032
118	0xbe0a2f84	-0.13494688
119	0xbd8b1421	-0.06790949
120	0x3dd83a6e	0.105580196
121	0xbde65e6c	-0.11248478
122	0x3dde38d6	0.10850684
123	0x3e23ce23	0.15996604
124	0xbe3373ab	-0.17524593
125	0xbd99bd0b	-0.0750676
126	0xbe8e31f4	-0.27772486
127	0xbe4c6c32	-0.19963148
128	0xbe43e588	-0.19130528
129	0xbdbd65ab	-0.09247907
130	0x3ddd4fbf	0.10806226
131	0xbe159801	-0.14608766
132	0xbc4057e1	-0.011739702
133	0x3b41cdbc	0.002957209
134	0xbe5faf9d	-0.21844335
135	0x3cdaf191	0.026726516
136	0xbcfb5214	-0.030678786
137	0xbe5a5213	-0.21320371
138	0xbcdfa8ef	-0.027302234
139	0x3d3c328d	0.045946646
140	0x3e3ee3b3	0.18641548
141	0xbdd07748	-0.10179001
142	0x3e117666	0.14205322
143	0xbcc204f3	-0.023684
144	0xbe3cee9a	-0.18450394
145	0x3d73d5ef	0.059530195
146	0x3e528d7a	0.20561782
147	0xbd07e647	-0.033178594
148	0xbe987873	-0.29779395
149	0xbd350311	-0.044192377
150	0x3c17b364	0.009259079
151	0x3e3d6eb7	0.18499266
152	0x3e204bad	0.15653868
153	0xbddd9894	-0.108201176
154	0xbdeacbe9	-0.11464674
155	0xbe41eb46	-0.18937406
156	0xbd895310	-0.06705296
157	0x3b873c50	0.004127063
158	0xbe47d7b0	-0.19515872
159	0x3e19b8d8	0.15011919
160	0x3cf617df	0.03004068
161	0x3e87b751	0.26507047
162	0xbe63ecf1	-0.22258355
163	0x3e687ef4	0.22704679
164	0x3e54225b	0.2071623
165	0xbd2f70d8	-0.042832226
166	0x3e005c75	0.1253527
167	0xbe468c9a	-0.19389573
168	0xbe409b4d	-0.18809243
169	0xbd9b586a	-0.07585223
170	0xbda8dee5	-0.08245639
171	0x3e3b82c8	0.18311608
172	0x3bf57956	0.007491271
173	0x3c11d7ff	0.008901595
174	0xbdf430f3	-0.11923399
175	0x3de218ee	0.11039911
176	0xbd9a4abe	-0.07533787
177	0xbe243f1d	-0.16039701
178	0xbdb04209	-0.08606345
179	0x3d4aa4b5	0.049473483
180	0x3ce844e1	0.028353157
181	0xbd6ffad6	-0.058588825
182	0xbd3844c7	-0.044987466
183	0xbe042751	-0.12905623
184	0x3e45445f	0.19264363
185	0xbe41ad36	-0.18913731
186	0xbe2ea254	-0.17054111
187	0x3e6418db	0.22275107
188	0x3e638720	0.22219515
189	0xbd883a84	-0.06651786
190	0x3e38739f	0.18012856
191	0xbe01067d	-0.12600131
192	0x3e4b2f39	0.19842233
193	0xbc644ffc	-0.013935085
194	0xbe0b6f17	-0.13616596
195	0x3dde4197	0.10852354
196	0xbe7def42	-0.24798301
197	0xbe271395	-0.16316064
198	0xbe03c83d	-0.12869354
199	0x3e997136	0.29969186
200	0xbe00f641	-0.12593938
201	0x3e6458b6	0.22299466
202	0xbca3f718	-0.020015284
203	0x3e203939	0.15646829
204	0xbdd19cf8	-0.102350175
205	0x3c72bc27	0.014815367
206	0x3e56f7b8	0.20992935
207	0x3e3ed039	0.18634118
208	0xbe0a0c0b	-0.13481157
209	0xbdb8c7a1	-0.09022451
210	0x3e157ce9	0.1459843
211	0xbdd7ed3c	-0.10543296
212	0xbd9a35f7	-0.07529824
213	0xbe22d71a	-0.15902367
214	0x3db28721	0.0871718
215	0x3a840c7d	0.0010074523
216	0x3e17a67a	0.148096
217	0xbda19f81	-0.07891751
218	0x3e30e68f	0.17275451
219	0xbe43073a	-0.19045725
220	0xbddb986f	-0.10722434
221	0xbe70d153	-0.23517351
222	0xbd0bf46c	-0.034168646
223	0x3e807603	0.25090036
224	0xbe749704	-0.23885733
225	0x3d6f18c9	0.058373246
226	0x3d997d30	0.07494581
227	0x3d25a808	0.04044345
228	0xbe2a60c7	-0.1663848
229	0x3e5a9f14	0.21349746
230	0x3ba2dfda	0.004970533
231	0x3e132f52	0.1437352
232	0x3e1051ed	0.14093752
233	0xbd17cbcf	-0.0370596
234	0x3d98865c	0.07447502
235	0xbe0b3c40	-0.13597202
236	0x3d5f796f	0.054559167
237	0x3cfff0b5	0.031242708
238	0xbc905f6a	-0.017623622
239	0xbd69f441	-0.057117704
240	0xbe520fea	-0.20513883
241	0xbe7010aa	-0.23443857
242	0x3e2133a8	0.15742362
243	0x3e24fb15	0.16111405
244	0x3e4a921e	0.19782302
245	0x3e16b542	0.14717582
246	0x3e4ca13a	0.19983378
247	0xbe9161e7	-0.28395006
248	0xbe0edbac	-0.13950986
249	0x3e75c02d	0.2399909
250	0x3e217685	0.15767868
251	0x3c77c6ee	0.015123112
252	0xbd1c0429	-0.038089905
253	0x3c3fd0cc	0.011707496
254	0xbe21d235	-0.15802844
255	0xbe1b37f7	-0.15158068
