ultra96/weights_pos_sat_40_mav_10/weight_1.npy (npy, 4224 bytes, 1 tensors)

array f4 [32, 32]
-0.12755539 -0.20876479 0.11726329 -0.17263143 0.21268749 -0.020570926 0.26834413 0.05842053
-0.2047603 0.274908 -0.15799704 -0.25975782 0.19577833 0.24898359 -0.02926292 -0.07333161
-0.36171317 -0.02357835 0.24337582 -0.26073664 -0.31181788 0.032872822 -0.10578889 -0.012108324
0.14144027 0.02292985 -0.16742793 -0.10349808 0.004459009 -0.25012162 0.11100871 0.21546094
-0.19680966 0.029474877 0.2822742 0.22560367 0.15343095 -0.22910498 0.04008617 0.2901124
0.20389727 -0.29056844 -0.17135575 -0.2530338 0.24329515 -0.14045462 -0.21277043 0.31554276
0.121632755 -0.004920909 0.27473298 -0.2055821 -0.18369937 0.30318302 0.040971518 -0.2873582
-0.089078166 0.29596683 -0.15211219 0.23639111 -0.14952865 0.02661088 -0.24169129 -0.22248821
0.007917951 -0.13916266 -0.05101012 0.18665339 0.30585182 -0.07022536 0.037337802 -0.0052288817
0.11169156 0.06094221 0.025301822 0.102129586 -0.15002114 0.052390464 0.3365641 0.31662992
0.14562605 -0.19568928 0.055124924 0.120763935 0.0531255 -0.14410602 -0.10159911 -0.29692826
-0.21861136 0.12804766 -0.24433585 -0.2754088 0.29965147 -0.056936372 0.09902229 0.16769533
0.18628615 0.13259225 -0.18829776 -0.22068399 -0.21221878 -0.13745657 -0.123937964 -0.2544154
-0.20259473 -0.2130289 0.1358735 0.08917403 0.10948261 -0.080650166 -0.022676298 -0.08459855
-0.28676182 0.08398986 0.06522163 0.1012969 0.049831714 -0.056002043 0.25426283 0.19517213
-0.007252721 0.0516473 0.022144118 -0.11420178 -0.28385437 -0.13514522 0.1067714 -0.19572675
-0.1384005 -0.043122903 -0.07752793 0.30957645 0.052908704 0.13268475 -0.10515561 0.2534569
0.1470666 -0.2579422 0.341829 -0.28836527 0.23087603 -0.032321177 -0.111483805 -0.15455142
0.37937534 -0.08266824 0.12299611 0.22922398 0.3612094 -0.15889852 -0.032769356 -0.04371632
0.16169667 -0.1268429 -0.136656 0.1553694 0.278519 -0.12124569 0.002688901 0.04274341
0.06365962 0.17615889 0.12249972 0.10485647 0.28035626 0.052690674 -0.01312786 0.37137496
0.19076331 -0.050469156 0.17506908 0.13720152 0.19674379 -0.33916566 0.24928126 -0.183789
0.24229139 0.14151238 0.1763889 -0.16153574 0.09616134 -0.12921423 0.22673534 -0.09332746
0.26967373 -0.14978969 -0.0152923325 0.052281186 0.17530864 0.25395018 -0.042170458 -0.116500795
-0.02830489 0.15281877 0.054751065 0.10319016 0.18180944 0.07487282 0.20711271 0.09323845
0.11043517 0.022881318 -0.051507384 0.15562835 0.13424616 0.1658456 0.020078175 -0.04458634
0.13692303 -0.26723376 0.3954815 -0.03541837 -0.030894484 0.044558596 -0.2133066 0.06925712
-0.027679075 -0.19301417 -0.2921528 0.25835097 -0.14067583 0.21456422 0.14032646 0.2985169
0.26264292 -0.20154782 -0.2289234 -0.018519882 0.026303865 -0.2306491 -0.0030304291 -0.2072124
0.017983235 0.19551452 0.28595978 -0.12509127 -0.0083976 -0.034482412 -0.18007183 0.014147839
0.109970964 0.27117914 0.33051544 0.080817 -0.0009437613 -0.10931284 0.285237 -0.18351853
0.13846625 -0.18302867 -0.0041385167 0.18797119 -0.10013976 0.21653329 0.009914761 -0.05266944
00000000: e19d 02be 70c6 55be bc27 f03d 4bc6 30be
00000010: c0ca 593e 5c84 a8bc 6764 893e 5e4a 6f3d
00000020: afac 51be bec0 8c3e fac9 21be fafe 84be
00000030: 1d7a 483e 8ef5 7e3e cbb8 efbc e22e 96bd
00000040: 7832 b9be 6227 c1bc 8337 793e 467f 85be
00000050: 98a6 9fbe a7a5 063d d8a7 d8bd fe61 46bc
00000060: b8d5 103e 61d7 bb3c 3a72 2bbe cdf6 d3bd
00000070: e11c 923b f10f 80be 8958 e33d cba1 5c3e
00000080: 7988 49be 4c75 f13c 3e86 903e a604 673e
00000090: 011d 1d3e 7f9a 6abe 6531 243d 9d89 943e
000000a0: 72ca 503e 63c5 94be e277 2fbe a58d 81be
000000b0: 5d22 793e 56d3 0fbe 7ee0 59be d28e a13e
000000c0: 981a f93d 943f a1bb cda9 8c3e 1d84 52be
000000d0: b01b 3cbe ce3a 9b3e c0d1 273d 9d20 93be
000000e0: 9d6e b6bd f788 973e 4cc3 1bbe 8310 723e
000000f0: 0a1e 19be 0fff d93c ec7d 77be f3d3 63be
00000100: 4bba 013c a880 0ebe fdef 50bd 1122 3f3e
00000110: 9c98 9c3e 50d2 8fbd 86ef 183d 0a57 abbb
00000120: 8bbe e43d 8a9e 793d c445 cf3c 5129 d13d
00000130: 249f 19be 6297 563d 2152 ac3e 511d a23e
00000140: ff1e 153e c562 48be acca 613d 1553 f73d
00000150: 209a 593d 8790 13be 3213 d0bd fb06 98be
00000160: a8db 5fbe ed1e 033e 2d33 7abe 6202 8dbe
00000170: eb6b 993e 1d36 69bd 33cc ca3d 53b8 2b3e
00000180: ccc1 3e3e 43c6 073e 21d1 40be fcfa 61be
00000190: e14f 59be 6ac1 0cbe 30d3 fdbd bc42 82be
000001a0: fe74 4fbe 3f24 5abe 6c22 0b3e e0a0 b63d
000001b0: 6b38 e03d ea2b a5bd a5c3 b9bc 0142 adbd
000001c0: 72d2 92be e002 ac3d eb92 853d c074 cf3d
000001d0: 571c 4c3d 6662 65bd bd2e 823e 34db 473e
000001e0: 3ca8 edbb 1f8c 533d 9567 b53c 9fe2 e9bd
000001f0: 5c55 91be 8263 0abe f7aa da3d 986c 48be
00000200: dcb8 0dbe a4a1 30bd f7c6 9ebd ce80 9e3e
00000210: ccb6 583d 83de 073e d35b d7bd 1ac5 813e
00000220: a098 163e 0011 84be 3604 af3e 9da4 93be
00000230: c46a 6c3e 3663 04bd 9f51 e4bd ba42 1ebe
00000240: 7c3d c23e f74d a9bd 62e5 fb3d b1b9 6a3e
00000250: 70f0 b83e 4bb6 22be 2939 06bd e20f 33bd
00000260: d093 253e 1be3 01be 8def 0bbe 2819 1f3e
00000270: 0b9a 8e3e a94f f8bd 4638 303b b713 2f3d
00000280: fa5f 823d ff62 343e 22e1 fa3d fdbe d63d
00000290: db8a 8f3e 2dd2 573d 3c16 57bc dc24 be3e
000002a0: 7557 433e bfb8 4ebd 4f45 333e 8e7e 0c3e
000002b0: 3477 493e 1fa7 adbe 9643 7f3e 2f33 3cbe
000002c0: 3c1b 783e 9fe8 103e 4b9f 343e a069 25be
000002d0: 3df0 c43d bc50 04be 4f2d 683e 7822 bfbd
000002e0: ad12 8a3e 7862 19be b18c 7abc cc24 563d
000002f0: 1c84 333e c205 823e eeba 2cbd f897 eebd
00000300: a8df e7bc 867c 1c3e a742 603d 5d55 d33d
00000310: 412c 3a3e ec56 993d 5b15 543e cdf3 be3d
00000320: d62b e23d 9a71 bb3c 68f9 52bd 0a5d 1f3e
00000330: d377 093e 6ed3 293e fc7a a43c 2ba0 36bd
00000340: 8d35 0c3e ddd2 88be 8d7c ca3e da12 11bd
00000350: 6e16 fdbc 1383 363d 0c6d 5abe add6 8d3d
00000360: 3abf e2bc 82a5 45be 0d95 95be 9446 843e
00000370: 530d 10be b9b6 5b3e bdb1 0f3e 35d7 983e
00000380: 2279 863e 8d62 4ebe e56a 6abe 02b7 97bc
00000390: 347b d73c 472f 6cbe 2a9a 46bb 7d2f 54be
000003a0: 9451 933c f534 483e 5269 923e ed17 00be
000003b0: 1696 09bc 6e3d 0dbd c064 38be 56cc 673c
000003c0: 7538 e13d fed7 8a3e 5239 a93e 6283 a53d
000003d0: c066 77ba 69df dfbd 960a 923e 48ec 3bbe
000003e0: 19ca 0d3e de6b 3bbe 659c 87bb 857b 403e
000003f0: 1316 cdbd e7ba 5d3e 8671 223c e9bb 57bd
