ultra96/weights_pos_sat_40_mav_10/weight_2.npy (npy, 4224 bytes, 1 tensors)

array f4 [32, 32]
000000 7f f0 94 be 71 a0 82 3e 55 7b 2b bc c9 15 00 bc
       -0.29089734 0.25513032 -0.010466416 -0.007817694
000010 f2 21 0e 3d ba b5 77 3e 71 a1 bc 3d 28 86 0f be
       0.03470034 0.24190417 0.0921048 -0.1401602
000020 81 aa 2a be bd 8d 4d be 25 c3 5a bd cf 01 8d 3e
       -0.16666605 -0.200736 -0.05340876 0.27540442
000030 46 68 d7 bd 13 22 a1 3e 51 a5 fd 3d cc 3e 27 be
       -0.105179355 0.3147131 0.12385047 -0.16332549
000040 ec cc b9 bd 30 49 34 3e 12 c9 8e 3e ba 7d c5 bd
       -0.09072289 0.17606044 0.2788778 -0.09643121
000050 09 ba 22 3e 84 cc 35 3e b5 37 ab 3e 47 9a 86 be
       0.1589128 0.17753798 0.3344094 -0.2628958
000060 5d 5d 7c bd bd fa e6 bd c2 e8 fc 3d 8e 52 92 be
       -0.061612476 -0.11278293 0.123490825 -0.2857861
000070 58 f6 87 be 56 ea cd 3e c1 e4 4f 3e 93 28 30 3d
       -0.26555133 0.40217847 0.20302106 0.043007445
000080 e4 c5 40 3e cf 72 a3 3e 62 9f b3 3d 50 72 89 3d
       0.1882549 0.3192353 0.08770634 0.067112565
000090 3a 31 fb bd 49 08 85 be 1d ae 6c 3e 8e 7a 1e be
       -0.122652486 -0.25982884 0.23113294 -0.15476438
0000a0 26 c2 fa 3d b8 e2 08 bc 00 0a d4 3d 31 54 5f 3e
       0.12244062 -0.008354835 0.1035347 0.2180946
0000b0 a8 f1 75 be 1e cb 9e ba 3b 24 2d bd bd 5b 4b be
       -0.24017966 -0.0012114977 -0.04227088 -0.19859214
0000c0 d4 50 89 bd de b9 8b 3e 09 7e ea bd 58 4a 5c 3e
       -0.0670487 0.27290243 -0.114498205 0.21512735
0000d0 fb 8d 76 3e e1 38 88 3e 6d bc 5d 3e 18 65 e4 bc
       0.24077599 0.26605895 0.2165391 -0.027880237
0000e0 6c a2 27 be 10 c7 c7 bc 05 36 d7 bd 59 1b 77 be
       -0.16370553 -0.024386913 -0.1050835 -0.24131526
0000f0 2a 20 d5 3d b8 0f af 3e 25 b8 2d 3e 37 fb 41 3e
       0.104065254 0.3419168 0.16964777 0.18943487
000100 af 9a 0a 3e 8e 46 72 be ef b2 43 3e 5d 61 3b bd
       0.1353557 -0.23659727 0.19111226 -0.04574715
000110 d1 b2 19 be ac 14 26 be e6 b8 28 3d e7 59 a8 be
       -0.1500962 -0.16218823 0.041191958 -0.3288109
000120 38 79 bd bd b2 51 9d 3e ca 06 09 be b8 cd 16 3d
       -0.09251636 0.3072639 -0.13381496 0.036817282
000130 29 10 ad 3e 42 86 23 3e cb 5c b6 be cd a2 9c 3d
       0.33801392 0.15969184 -0.3561767 0.07648239
000140 9d e5 17 bb 23 d5 6b 3e a5 47 84 3e 72 08 6a 3e
       -0.0023177632 0.23030524 0.2583591 0.22854784
000150 e8 40 9e be a9 e7 bd be f4 d3 af bd 24 08 f0 bc
       -0.30908895 -0.37090805 -0.08585349 -0.029300757
000160 dd 91 91 3e 76 80 af bd a4 51 a9 3e 48 32 83 3d
       0.28431597 -0.08569424 0.330701 0.06406075
000170 75 50 b6 bd 6d ad 82 be 06 7a 3c be ef a9 0a 3e
       -0.08902065 -0.25522938 -0.18405923 0.13541387
000180 6b 85 81 3e 8e 30 2f be fb 4b 44 3e 91 61 0e be
       0.25297102 -0.17108366 0.19169609 -0.13904406
000190 dc ad 05 3c f6 39 23 3e f3 60 bd 3e 6f d3 8c 3e
       0.008159127 0.15940079 0.3698803 0.2750506
0001a0 49 ed 8f bd 74 fa 03 3e 16 e7 dd 3d e7 30 07 bd
       -0.070276804 0.12888509 0.10835092 -0.03300562
0001b0 b7 00 5c be 26 79 a3 3d 22 ba dc 3c 20 76 ea 3d
       -0.21484648 0.079820916 0.026944224 0.11448312
0001c0 4b 29 77 3e 6d 33 46 be ab d3 fe 3d 98 65 91 be
       0.24136846 -0.19355555 0.12442716 -0.28397822
0001d0 88 33 c9 bd cd 2e 1d bd f9 83 e4 3d 32 32 a4 3e
       -0.09824282 -0.03837471 0.11157984 0.32069546
0001e0 8f 6e 86 3e 3b 90 ea bd fd dd 7c be c1 e2 07 be
       0.26256225 -0.11453291 -0.24694057 -0.13270094
0001f0 88 59 08 3e a6 25 d7 bd 13 e2 32 be 98 12 3b bc
       0.13315403 -0.10505228 -0.17469053 -0.011418007
000200 44 c3 7d 3e d3 e8 46 3d b0 ee d1 3d c6 39 88 3e
       0.24781519 0.048561882 0.10250604 0.26606578
000210 c4 64 03 3e 3f 95 c9 3c fc 98 68 be af cf 6a be
       0.12831408 0.024607299 -0.22714609 -0.22930788
000220 78 c1 fb bd 8b 27 80 3e 56 93 6b ba 70 f2 2e be
       -0.122927606 0.2503017 -0.00089864933 -0.1708467
000230 91 53 b3 3e a3 8e a0 3e 26 10 55 be 15 f2 e7 3d
       0.35024694 0.31358823 -0.20806941 0.1132547
000240 00 2c d9 3c 8b 7e 7b 3e 3e 06 92 3e 3e 83 2a be
       0.026510239 0.24559991 0.28520387 -0.16651627
000250 26 ba 64 3d ef e5 f5 bd 0c 02 9c 3e a7 b7 2d 3d
       0.055841587 -0.12006747 0.30470312 0.042411473
000260 83 91 5f be a3 cb 12 3e 23 8f 94 3e 03 4f 2a 3a
       -0.21832852 0.14335494 0.29015455 0.0006496759
000270 61 8d f2 3d 3d 90 26 be 6e b1 4f be 2c 0f 47 3e
       0.11843372 -0.1626596 -0.20282528 0.19439381
000280 11 cd 3f be d6 26 13 be d4 27 27 be 05 2b cc 3c
       -0.1873057 -0.14370283 -0.16323787 0.024922857
000290 be 00 e1 bd 69 08 0f 3e 4a d4 31 be 46 24 74 3e
       -0.1098647 0.13968052 -0.17366138 0.23841962
0002a0 44 e7 12 3e e5 95 29 3d fa 69 83 be ff af 4b bd
       0.14346033 0.041402716 -0.2566679 -0.04972839
0002b0 6e 74 05 3d 69 21 98 be dc 36 ec 3c 3b 7d aa be
       0.03258174 -0.2971299 0.028834753 -0.33298668
0002c0 2c 40 35 3d 78 99 89 3e 2f cb 0e 3d 49 d6 38 3e
       0.044250652 0.268749 0.03486174 0.18050493
0002d0 9b 75 b1 be 1c 4a a9 3e 28 4a ad 3e b5 c3 19 3a
       -0.34660038 0.33064353 0.3384564 0.00058656494
0002e0 21 91 ca bd 0d 50 2f bc 0f f5 b5 3e 7d 32 14 be
       -0.098909624 -0.010700238 0.35538527 -0.14472385
0002f0 71 db ff bd 61 cd 62 3e 81 28 c5 3d cd 10 92 3e
       -0.12493027 0.22148658 0.09626866 0.28528443
000300 59 22 7c bd fb 5f 5c be cb 92 64 3d d4 88 6c bc
       -0.061556194 -0.21520989 0.055804055 -0.014436919
000310 93 bc 95 bd 6d 26 4b be d0 e2 02 3e f8 57 15 bd
       -0.07311358 -0.19838877 0.12781835 -0.036460847
000320 6b de 8a 3e 12 f9 89 be db 7e c8 bd d2 fb 2e be
       0.27122816 -0.26947838 -0.09789821 -0.1708825
000330 94 f9 81 3e 5d 4b ce 3c 9c 54 05 3d 77 8c 88 be
       0.25385725 0.02518242 0.032551393 -0.26669666
000340 92 cd 12 be 31 3c 63 be 65 76 05 3e 09 90 a6 bd
       -0.14336231 -0.2219093 0.13033445 -0.08132941
000350 7b 54 97 3d e6 b2 7d be 8e 7d 7b bc 8c 8a de bd
       0.0738916 -0.24775276 -0.015349759 -0.108662695
000360 6b 26 9c 3e e4 3b a2 be c1 d8 89 3e 45 fc 86 3e
       0.3049806 -0.31686318 0.26923183 0.2636434
000370 7f 5e 3b bd f6 34 b8 be 19 96 01 3e b0 ce 73 3e
       -0.045744415 -0.35977906 0.12654914 0.23809314
000380 a3 e2 07 3e cf b2 03 3e bd 8a 96 3d c0 12 4d 3e
       0.13270049 0.12861179 0.07350681 0.20026684
000390 13 a0 16 3e 52 04 be 3e dc 28 25 3e 5c 86 91 3e
       0.14709501 0.3711267 0.16128868 0.2842282
0003a0 55 30 3f be 64 94 44 be f5 f3 f8 bd 90 66 35 be
       -0.18670781 -0.19197232 -0.12155906 -0.17714906
0003b0 44 0e 72 3e e9 52 8c 3e 94 bb a4 3e 2a 3e 5d be
       0.23638254 0.27407005 0.3217436 -0.21605745
0003c0 0b a2 72 3e ce 41 46 be bd 20 ea bd 86 26 ba bc
       0.23694627 -0.1936104 -0.114320256 -0.022723448
0003d0 1b e5 2f 3e cb c0 9c 3d d3 e2 87 be 27 87 6c 3e
       0.1717724 0.0765396 -0.2654024 0.23098432
0003e0 00 9e 8c 3e 7c 1c 8b be 58 42 92 3d fe f3 9a 3e
       0.27464294 -0.2717017 0.0714156 0.30264276
0003f0 db 93 32 3e a5 36 36 be f9 71 8c 3e 01 34 36 3d
       0.17439215 -0.17794283 0.27430704 0.04448319
