ultra96/weights_dance_sat_40/bias_0.npy (npy, 640 bytes, 1 tensors)

array f4 [128]
0	0x3d2171e8	0.03941527
1	0x3d5cedb9	0.053937647
2	0x3d4a9c9d	0.049465764
3	0x3b98e8af	0.00466641
4	0x3c555e23	0.013022932
5	0x3d7d4ef5	0.061842877
6	0x3ccf1a26	0.025281023
7	0x3d25f7ce	0.040519528
8	0x3cd22627	0.025652958
9	0x3c7b46bf	0.015336691
10	0x3d94afac	0.07260069
11	0x3d275ab0	0.04085797
12	0xbc9e757d	-0.019343132
13	0x3ba61737	0.0050686854
14	0x3cb0d3ea	0.021585423
15	0xbd1ac333	-0.037783813
16	0x3c12ab99	0.008952045
17	0x3ccac7a4	0.0247534
18	0x3c8c8c67	0.017156793
19	0x3c8e62e6	0.017381143
20	0xbbc93841	-0.006140739
21	0x3d0d7ce2	0.034542926
22	0xbcc17e0c	-0.023619674
23	0xbd4e0f00	-0.050307274
24	0x3d338e81	0.043837074
25	0x3d06b4b3	0.032887172
26	0x3d8daf0e	0.06918155
27	0xbcc78057	-0.02435319
28	0xbcf60dc8	-0.030035868
29	0x3d7f97ff	0.062400814
30	0x3d25fa4a	0.040521897
31	0x3ca5a87e	0.020221945
32	0x3baf1db0	0.005344115
33	0x3cb89126	0.02253015
34	0x3aa69bf4	0.0012711273
35	0x3b1b4ebd	0.0023698055
36	0xbcf0f147	-0.029411925
37	0x3ddfc3dd	0.1092603
38	0x3c99529e	0.018716153
39	0xbbe12442	-0.0068707773
40	0xbc00a21e	-0.007851152
41	0x3cbf43ba	0.023347724
42	0x3d80dd8d	0.062922575
43	0xbcfc3141	-0.030785205
44	0x3b8eacbb	0.004354087
45	0xbc9b770c	-0.018977664
46	0x3b176a5b	0.0023104164
47	0x3d767411	0.060169283
48	0x3d635c9a	0.055508234
49	0xbd0425d7	-0.03226265
50	0xbd8c14a4	-0.068398744
51	0x3abb4c7a	0.001428976
52	0xbbab7f81	-0.0052337055
53	0x3d43e0e6	0.0478219
54	0x3d255f0f	0.040373858
55	0x3d0db531	0.034596626
56	0xbafb2a8d	-0.0019162461
57	0x3d528c07	0.05140307
58	0x3c70714f	0.014675452
59	0x3ce61f47	0.028091086
60	0xbd007c29	-0.03136841
61	0xbd0e5fe1	-0.034759406
62	0x3ca5452f	0.02017459
63	0x3d5e4cc1	0.054272417
64	0xbc91307f	-0.01772332
65	0xba75bdca	-0.0009374289
66	0x3d9c34e7	0.07627278
67	0xbbc11a95	-0.0058930614
68	0x3d6427fe	0.055702202
69	0xbbbae6e5	-0.0057037943
70	0x3d1a42bf	0.03766131
71	0xbce4df7c	-0.027938597
72	0x3c908b4f	0.017644553
73	0x3d2efb3d	0.04272007
74	0x3cd8a1b5	0.026444295
75	0x3d3f6768	0.046729475
76	0xbd6f1450	-0.05836898
77	0x3d52cc9c	0.051464662
78	0x3d18a342	0.03726507
79	0x3cdaa849	0.026691573
80	0xbc116505	-0.008874183
81	0xbcb8bda8	-0.022551373
82	0x3d0985c1	0.033574823
83	0xbc2a5ab3	-0.010397601
84	0x3dc5fab9	0.09666962
85	0xbcd024d0	-0.025408179
86	0x3d14fe0d	0.036375094
87	0x3c904dfc	0.01761531
88	0x3bf3655a	0.0074278535
89	0xbc17ebfd	-0.009272573
90	0xba38ff59	-0.0007057093
91	0x3d61c4be	0.05511927
92	0x3d7e4890	0.06208092
93	0xbd031a06	-0.03200724
94	0x3d5fd081	0.054642204
95	0x3caaa76c	0.020831786
96	0xbb32c3c3	-0.0027277328
97	0xbc853b12	-0.016263518
98	0x3d9645d1	0.07337535
99	0xbd837747	-0.06419235
100	0x3d21aa81	0.039469246
101	0x3c8bdc12	0.017072711
102	0x3cd9e9ec	0.0266008
103	0x3d480641	0.04883409
104	0x3ce8a8f7	0.028400881
105	0x3c555ca7	0.013022578
106	0xbcde3751	-0.027125986
107	0x3d4f5f83	0.050628196
108	0xbce2f43f	-0.027704356
109	0xbc8674d0	-0.016413122
110	0xbcc82bba	-0.024434913
111	0xbcb2f058	-0.02184312
112	0x3db285f4	0.08716956
113	0x3d36a0b6	0.04458686
114	0x3d9612c8	0.07327801
115	0x3cd84e7c	0.026404612
116	0x3c24ff23	0.010070595
117	0x3ca26dc4	0.019827731
118	0x3c94731e	0.018121298
119	0x3d600fce	0.054702573
120	0xbc079c4f	-0.008277013
121	0x3db918e1	0.090379484
122	0x3c870604	0.01648236
123	0xbb1d5f5e	-0.0024013142
124	0xbb617fad	-0.0034408376
125	0xbd636233	-0.055513572
126	0xbd1ddd60	-0.038541198
127	0x3c9b5b5e	0.018964466
