ultra96/weights_dance_sat_40/bias_2.npy (npy, 640 bytes, 1 tensors)

array f4 [128]
000000 aa e5 96 bc d2 77 01 3d 4a 02 8b 3c 9b b8 8f bc
       -0.01842006 0.03160841 0.016968865 -0.017544081
000010 3f fe 37 3d 42 f6 30 bc 60 ca 0c bb 0e 79 5c 3b
       0.044920202 -0.0108009 -0.002148293 0.003364149
000020 a2 d8 65 bc 46 c5 02 bc 39 a8 f0 3b cb 73 8b 3c
       -0.0140287 -0.007981604 0.0073442725 0.017022988
000030 9c 01 f1 bc 64 1e 9d bb 5b bc dc 3b ba 2f 5a 3d
       -0.029419713 -0.0047948826 0.006736321 0.05326817
000040 d2 a4 82 3b 6f 9c 18 3d c3 07 38 3d d1 6c 0c bc
       0.0039869333 0.03725856 0.044929277 -0.008570866
000050 73 63 c9 3c dc 44 06 3d b8 f2 4c 3c 7a 26 53 bb
       0.024583554 0.032780513 0.012509041 -0.0032218979
000060 dc 48 8b 3c e0 76 4f 3d d8 08 a6 bc 6f 34 15 bd
       0.017002515 0.050650477 -0.020267889 -0.036426958
000070 6c 8d 64 3c 34 ee 04 3b 93 1e 17 3c cf 8b db bc
       0.013949733 0.0020283582 0.009223598 -0.026800064
000080 f3 d7 02 3c ea b1 86 bc 34 00 e7 3c df a6 4f 3d
       0.007986057 -0.016442258 0.028198339 0.05069625
000090 96 f2 13 bb fe d7 60 3d ec bd f8 3c 9f 4f a4 bc
       -0.0022575012 0.054893486 0.030364 -0.020057498
0000a0 4c b8 16 bc 3b 33 61 3d d1 9e 01 3d 80 73 94 3c
       -0.009199213 0.054980498 0.0316456 0.018121481
0000b0 42 af 93 3c 4e 89 c4 3b 13 d1 48 bc 2d 68 17 3d
       0.018027905 0.0059978133 -0.012256878 0.036964584
0000c0 28 b1 8f bc 07 d0 7d 3c 1f 05 26 3d 70 99 84 3c
       -0.01754053 0.015491492 0.040532228 0.016186446
0000d0 90 c8 c9 3c ec db 29 3b ed 3f c7 3c 90 ff 16 3c
       0.024631768 0.0025918437 0.024322474 0.009216204
0000e0 96 6d ba 3c f4 8f 14 3d 87 6e 0b 3d 80 61 ce 3c
       0.022757333 0.036270097 0.034040954 0.025192976
0000f0 18 c8 6f 3d 80 96 6c 3c 90 43 13 3d 0c 4a f3 bc
       0.058540434 0.014440179 0.035953104 -0.029698394
000100 4b 6e 4e 3c 17 a6 1d 3d 23 59 1b bd af df a4 bc
       0.012599538 0.038488474 -0.037926804 -0.020126192
000110 80 26 c4 3c f1 f4 df bb 9e 32 9f 3c 92 8a 5d 3c
       0.02394414 -0.006834619 0.019433316 0.013521807
000120 ad cf 0b 3d 4f 5f 43 3c 94 33 af 3b 92 f1 46 bc
       0.034133602 0.011924579 0.0053467248 -0.012142556
000130 99 79 0c bd ea bd d9 3c 2c ce 4e 3c d1 e1 0f 3b
       -0.034295652 0.026579816 0.012622397 0.0021954665
000140 c3 cc 51 3d 3a e8 ca 3c ca d9 97 bc 95 15 53 bc
       0.051220667 0.024768937 -0.018536467 -0.0128835635
000150 bc 47 33 3d 6c 11 38 bc 84 c1 23 3d 30 97 5c bc
       0.043769583 -0.011234622 0.039979473 -0.01346378
000160 fb 57 2c 3d 7a a4 80 3b c5 66 ad 3a f6 b3 01 3d
       0.042076092 0.003925857 0.001322948 0.031665765
000170 cf 29 ee 3c dc 8d fd bc 60 bb fd 3c e4 b6 a7 3c
       0.02907267 -0.030951433 0.030973136 0.020472951
000180 20 5a bf 3b a0 ec 6c bb 74 0b 82 3c 40 bc 7b 3c
       0.005839601 -0.0036151782 0.015874602 0.0153647065
000190 2d 61 70 3a 86 87 df 3c 19 b6 43 3d cc ae 83 bb
       0.0009169754 0.027286302 0.047781084 -0.00401864
0001a0 fc 45 fb 3c fc ac 83 bc 7d 95 2c 3d 8f 9b 4c bc
       0.03067302 -0.016073696 0.04213475 -0.01248826
0001b0 59 d1 2a 3d 69 15 6f 3c c6 74 a3 bc d8 9c f1 3b
       0.041703556 0.014592507 -0.019953143 0.0073734336
0001c0 57 34 7c 3c 27 62 80 3c 43 3f b3 39 ef 0b 1c 3d
       0.015393338 0.015671803 0.00034188674 0.03809732
0001d0 c8 f7 67 3d 1d df ce bc ba 9f c7 3c 00 a5 a2 3c
       0.056632787 -0.025252873 0.024368156 0.019854069
0001e0 85 e0 46 bc b2 61 d4 3c 4c ae 1b 3d 8f 74 a8 3c
       -0.012138491 0.025925491 0.03800802 0.020563392
0001f0 9e 85 bf 3c 45 4e cb 3c f9 37 73 bc e3 7a 29 3c
       0.023379143 0.024817595 -0.014844888 0.01034424
