ultra96/weights_dance_sat_40/weight_0.npy (npy, 51328 bytes, 1 tensors)

array f4 [100, 128]
000000 9e dd 1c be 72 e6 4c 3d 10 4f 00 be 96 b7 a1 bd
       -0.15318915 0.050024457 -0.1253016 -0.07896344
000010 1b 58 b3 3d a7 cd 33 3e 7d 91 ef bd 38 fe 83 3c
       0.08757039 0.17558919 -0.116976716 0.016112432
000020 f9 86 af 3d 76 3d f9 3d af 6c f6 3d 5f bb da 3b
       0.08570666 0.12169926 0.120324485 0.0066751684
000030 6e 61 77 bd 7d f3 19 be 6a dd a6 bc 72 83 da 3d
       -0.06039565 -0.1503429 -0.02036925 0.106696025
000040 81 6c 9f bc 0f 83 57 3e 2c 63 74 bd 81 ac 3a 3d
       -0.019460918 0.21046089 -0.05966489 0.04557467
000050 86 c8 0d be 7f 3b 03 bd c5 a0 eb bd 79 2b b6 3d
       -0.13846025 -0.03203916 -0.11505274 0.088950105
000060 df 3e 28 3e 4a 8d 34 3c 69 29 c7 3d f7 96 88 3d
       0.16430233 0.011020014 0.09724695 0.06669419
000070 54 f9 93 3d 49 21 70 3c f6 5c 7e 3c ac 40 30 3d
       0.0722529 0.014656373 0.015525093 0.043030426
000080 15 46 f5 bc 1d 08 01 3e 56 4d a8 bd 71 e2 3f 3b
       -0.029940644 0.12600751 -0.08217876 0.0029279257
000090 be 41 d2 3a 5b 3c 33 3e 0b 77 8c 3d 17 99 32 bd
       0.0016041321 0.17503493 0.06858643 -0.04360303
0000a0 83 fc 94 3d 69 07 f8 3b c0 72 56 be 76 2d 07 3e
       0.07274725 0.0075692427 -0.20942211 0.13200936
0000b0 79 f5 26 3e e8 d2 24 be 85 6c e2 bd 2b 77 1a 3e
       0.16304578 -0.1609608 -0.11055855 0.15084521
0000c0 fa bf 9f 3d ea 16 63 bd 12 f7 98 bd 31 a5 31 3e
       0.078002885 -0.055441774 -0.07469 0.17348172
0000d0 3b ab 68 3d f8 ab 42 3e 34 a2 76 be 79 fe 32 bc
       0.056803923 0.19010913 -0.24085313 -0.010924929
0000e0 b0 b5 91 3d 09 82 b5 bd ec 4e 09 3d 11 bd ef 3d
       0.07114732 -0.08862693 0.03352253 0.117059834
0000f0 5a 93 0b be bc a1 47 be c7 ff 84 3e ae 54 c0 bd
       -0.13630429 -0.1949529 0.25976393 -0.09391151
000100 cb da f4 bc 45 b1 88 3d 10 cc 5c 3e 8d f7 b2 bd
       -0.029889485 0.066744365 0.21562219 -0.08738623
000110 6d 19 99 3a 18 24 31 3e 6b 73 63 be cd e0 7f be
       0.0011680551 0.17298925 -0.22211997 -0.24988098
000120 a7 d2 25 3e e2 6b 57 bd 46 da 9c 3d 12 f3 4f bd
       0.16193639 -0.05259312 0.0765882 -0.05076892
000130 06 e5 cc 3d 27 9d 40 3e 98 97 21 3d a5 ec 30 3e
       0.1000462 0.18809949 0.03945121 0.17277773
000140 7b 51 b2 3b 99 72 fd bc e0 c3 07 be fe a1 39 be
       0.005441842 -0.030938433 -0.13258314 -0.18128201
000150 6f ff 42 3e ab d9 6a be 07 bc f9 3d 37 2d 1d 3d
       0.19042753 -0.22934596 0.121940665 0.0383732
000160 8c ec 2e be a5 e8 38 be 77 e8 b5 3d 98 e9 21 3e
       -0.17082423 -0.18057497 0.0888223 0.15811765
000170 d2 f8 49 3e b2 18 a3 bd ee af c2 bc 86 00 fb 3d
       0.19723824 -0.07963695 -0.02376553 0.12255959
000180 86 14 de 3d 7e 89 b5 bd 49 2e 81 3d 9b c4 9c bd
       0.10843758 -0.08864115 0.06307656 -0.07654687
000190 2b dd 2c 3e 3a 2f 3f be 73 6f 2b 3d 58 d1 a4 bb
       0.16881244 -0.18670359 0.041854333 -0.0050298385
0001a0 ed 4b ff 3d 8f e8 e1 3d 44 bc 4f be 93 58 9f bc
       0.124656536 0.11030685 -0.20286661 -0.019451415
0001b0 03 c5 b5 3d be 65 b0 bd cf 23 8a bd 69 6a c6 3d
       0.08875468 -0.08613156 -0.06745111 0.09688265
0001c0 5d ff 27 3e af 97 1d 3e 87 ca 4d 3e d0 0f 2d 3d
       0.16406007 0.15389894 0.2009679 0.042251408
0001d0 07 16 b9 3d ea b3 2f 3e 04 c5 ee 3b 57 b4 56 3e
       0.090374045 0.17158476 0.0072866697 0.20967232
0001e0 e6 f2 13 be a7 2e 77 bc 8a 4e 12 3e 0e 58 b8 bc
       -0.14448127 -0.015086806 0.14287773 -0.022502925
0001f0 43 97 25 3d ef 7d be 3d f3 18 a1 bd 94 36 82 be
       0.040427458 0.09301364 -0.07866087 -0.25432265
000200 cf 4b 83 3d ed c9 00 3e 88 49 3e be ba 2d 8b bd
       0.06410944 0.12577029 -0.18582737 -0.06795831
000210 70 be 41 be a8 50 0d 3d b5 3c 32 3e 63 29 2b be
       -0.18920302 0.034500748 0.1740597 -0.16715007
000220 20 35 c4 3c 9c f0 63 3d 76 da e2 bc 87 2a 08 3e
       0.023951113 0.055649385 -0.02769206 0.13297473
000230 8e 74 eb bd 5d d8 2b 3e 00 26 60 be f3 4c 33 3e
       -0.114968404 0.16781755 -0.21889496 0.17509823
000240 a5 7b 4d bd 63 70 16 3c d1 09 04 3d 14 ad 9d 3d
       -0.050166745 0.0091820685 0.032235924 0.07699028
000250 ef c4 95 bd e9 43 6b 3c 3b 7f 53 be 29 af 3c 3e
       -0.07312953 0.014359453 -0.20654003 0.18426193
000260 c4 67 6a be 99 90 a8 3b 54 4e ee bd 0e 19 c4 3d
       -0.22891146 0.0051441905 -0.11636034 0.09575091
000270 28 b1 10 3e fc 09 01 be c4 6e ba bd 66 cb ca bc
       0.1413008 -0.12601465 -0.09103158 -0.024755191
000280 e8 81 d8 3d 7b 6f cb 3d b8 bb 27 bd 34 0c 11 bd
       0.10571653 0.099333726 -0.040950507 -0.03541203
000290 97 40 34 3d b9 22 ab bd 20 34 70 3e c1 f0 06 3e
       0.04400691 -0.08356232 0.23457384 0.13177778
0002a0 31 af 01 be 54 bc 42 3e 11 c4 0d 3e ef b7 ff bd
       -0.12664486 0.19017154 0.13844325 -0.124862544
0002b0 6f 17 b8 3d 1c 66 0a bd 0d 1f 28 be b0 a1 ac 3d
       0.089888446 -0.033788785 -0.16418095 0.08429277
0002c0 0a cc a6 bd 20 f4 1e be bb 9a fd 3d e3 83 29 3e
       -0.08144386 -0.15522814 0.12383028 0.16554217
0002d0 34 73 ea 3d d7 a4 25 be f7 52 4b be ee ae 43 3d
       0.114477545 -0.16176163 -0.19855867 0.047774248
0002e0 a9 3f 89 be d0 35 09 be 0a 2a 2c be 84 28 42 be
       -0.2680638 -0.13399434 -0.16812912 -0.18960768
0002f0 69 40 9e 3d 66 d1 5a 3e b1 a3 0b be c0 67 68 be
       0.07727129 0.21368942 -0.13636662 -0.22695827
000300 ba 44 0f 3d 7c 68 09 be 88 14 34 3d 96 4a 3c 3e
       0.034977652 -0.13418764 0.043964893 0.18387827
000310 eb 99 c4 3d fe cc e5 bd a0 d8 00 be ef 88 cf bd
       0.0959967 -0.1122074 -0.12582636 -0.1013354
000320 87 c0 67 3c a6 fc 3d 3e a1 69 17 be ff 3a dc bd
       0.014145023 0.18553409 -0.14786388 -0.1075344
000330 49 5c 16 bd 4e d5 17 3e f1 fc 16 bd ef 41 17 3e
       -0.036709104 0.14827463 -0.036862317 0.14771245
000340 25 7a 0d be 2e 15 9a ba 6d 09 27 be 29 b6 1d 3d
       -0.13816126 -0.001175558 -0.1631219 0.0385038
000350 87 bd c3 bc 30 40 99 bd 4b 59 15 be 7f 6e 79 3c
       -0.023894085 -0.07482946 -0.14584844 0.015224098
000360 59 1a aa bc ef d7 c5 3d 2c 02 12 be ca 19 43 be
       -0.020764517 0.09660327 -0.14258641 -0.19052806
000370 53 13 ce 3c f2 6d d9 bd 79 3e c6 3d de 90 ff 3d
       0.025155699 -0.106166735 0.096798845 0.12478803
000380 ae 92 84 bd df d7 15 3e dd 01 b8 bd b6 ad 18 be
       -0.064732894 0.1463313 -0.089847304 -0.14910015
000390 d2 08 a8 3c 8d 69 2a 3d 94 3d da bd 84 b1 ad 3c
       0.020512018 0.041604567 -0.10656276 0.02120281
0003a0 8f e2 09 be 60 11 29 be a1 7b 87 3d 09 fe a5 3c
       -0.13465331 -0.16510534 0.06615377 0.020262735
0003b0 29 c2 9d 3d 9c 89 c5 bd 3c 18 ac 3d 62 b5 c8 bc
       0.07703049 -0.096453875 0.0840306 -0.024500553
0003c0 86 18 eb bd 69 03 f4 bd 0b 99 b1 3c 8a 46 03 be
       -0.11479287 -0.11914713 0.021679422 -0.12819877
0003d0 b9 68 92 bc a0 ad 93 bc e0 45 0b 3e d2 6b 17 be
       -0.017872201 -0.018027127 0.13600874 -0.14787224
0003e0 2d 7e 31 be 4a 30 18 3e 31 40 78 be d9 fc b5 3d
       -0.17333288 0.14862171 -0.24243237 0.088861175
0003f0 b0 2b 14 be 7d 6a 06 3d 3d fd 8a 3d 45 57 62 bd
       -0.1446979 0.0328164 0.067865826 -0.055259008
