ultra96/weights_3dance_old/weight_0.npy (npy, 12928 bytes, 1 tensors)

array f4 [100, 32]
00000000: db62 a2bd 2882 163e 5e99 5a3e 7f69 7b3d
00000010: 173f 573c 8514 46bd 5c7c b9bd 01d4 00be
00000020: 022f c8bd 2bbe 433e 9873 1c3e b0b6 40be
00000030: 6f0c 3bbe 471a 8bbd 43ad e9bd 8839 1f3e
00000040: fb9f 0d3e faf6 09bd 5290 733c b262 253c
00000050: aa6a 043e 5db6 7fbe 5f83 2bbe e6da 163d
00000060: e3cd 0bbe 2c5a a53d 6e6a 813d 878f 36be
00000070: df7a 1dbe 3816 eabd 9624 723e 83ea 4abb
00000080: b9f8 343d c9db e93d d064 8c3d b887 823d
00000090: 78df febd fca4 2ebb 80c9 203e a5f5 21be
000000a0: ca5b 3f3e 99ad 363e 6e8f 10bc 7d7d 023e
000000b0: e9b9 433d dbd4 633d 8c7b 23be 3e9f 58bc
000000c0: 77d1 213d 70ec c43c a175 3bbb 5e35 a13d
000000d0: d2a0 83bd 997f 30bd 8a99 573d 024e 31bc
000000e0: 386b 433e 0eec 0d3e 19f5 133e 42d1 a8bd
000000f0: 88e6 1cbe 8cb0 6f3d c1c1 bcbd 5e59 fbbd
00000100: 3c26 69bd 811a 8dbb cc6d 603e b5f1 ca3c
00000110: cc1f 003e edc4 05be 46be cebc efbb 22bd
00000120: cebb ea3c 806b e7bc 7490 123e 8e36 21bd
00000130: 8e79 283e bab3 7cbd 8785 08be b9c0 813e
00000140: e2fe aebd 27de ba3c 6764 31be 563b 023e
00000150: 75a8 85be 82c4 f23d 07ed f2bd bee9 1e3e
00000160: 7b35 4ebd c8a4 c0bd f09e 613e dbfc a6bd
00000170: a114 3abd 2b05 073e dd5f 01bd c1bd bf3d
00000180: b91e 39be c828 75be fdf7 083e c0f0 fb3d
00000190: 5a14 35be ffb1 4fbe cd51 25be 824e f33d
000001a0: 5350 70be 1052 5b3e ceac e8bd a031 043e
000001b0: d13f 4e3e 0362 1bbc 6d87 62be 3607 943c
000001c0: 1d6b 19bd 9123 f43d d9dc 6c3e 359e c93c
000001d0: c031 cc3d 3903 d2bc 586c 203d 84b3 0abd
000001e0: 7542 3cbe 7a10 c3bc d60e 423e 27f4 9b3d
000001f0: ce6f 9ebd 3e22 403e 09c8 a3bd 6ee5 ca3c
00000200: 0277 f0bb f88c 06be 8a60 1ebe 2482 b93b
00000210: d208 e7bd 7a8e 20be 8abc 283e 961b 1abe
00000220: f4dc f83d cfd9 a03c f290 e1bd 5fb9 39be
00000230: 1700 1bbe 935e 003e 27e3 82be 6498 85bb
00000240: 4928 353e 8c07 51be 9cfd 303e af45 4ebe
00000250: a84d a13d 7cf5 8fbe c65e 993d 6ca3 b6bd
00000260: 641f 4d3e 9da7 7d3e a458 243d 524f 24be
00000270: 4590 45be e116 7cbd c4b6 a53c eaf9 2abe
00000280: 716e 8d3d c034 f03c 7a28 87be 38ad 75bd
00000290: 995b 323d c977 33be 2456 533e 06df 9fbd
000002a0: ffae 643e d993 683c f359 d43d 4dc3 1ebe
000002b0: 27ea b63d 5e1b 8a3d 5e28 253e a3fc 2a3e
000002c0: beb1 263e dc6c 1abd 24d2 4f3d da9b e13d
000002d0: a0e2 6b3e 922f 17be ea4c 5abd 94fe 39be
000002e0: 1e68 a53c 56bb 123e 2496 01be 6cd0 84bd
000002f0: 6b03 a53d c311 13bd c940 21be 2aff 563e
00000300: e6b0 0b3e e31f 11be b18a 7dbe b667 a33d
00000310: 438b acbd 43cd dbbd e98f 8c3d 8fcf 333e
00000320: 2e5a 4ebe 3bff 6a3c bc7d 14be 13ae c63d
00000330: 3dde 24be d5f1 c93c d10d 493d 09e4 d5bd
00000340: 39f9 d3bd 0a98 053e 4fdd 173d f518 39bd
00000350: 368b ddbd 154b 233d a062 c23c cf88 af3d
00000360: bc96 edbc fd2a 933d d591 37be 13d5 e1bd
00000370: 47e9 33be bfd9 f43d a0b2 2abe 3a78 96bd
00000380: 0e39 26be 6423 2dbd eed9 903d 73f1 a13d
00000390: 3e46 713d 0905 1cbe 94c0 333d ab42 22be
000003a0: dbc4 a8bd 8348 e4bc f1f0 3c3e b42d a6bd
000003b0: b543 76be db95 60be 240b 74be 7994 963b
000003c0: e509 4fbd c6de 3f3e 67dd 593c bc52 2ebe
000003d0: da48 a2bd 01f5 45bd 95fa acba 7011 5ebe
000003e0: 0530 203e df21 e439 b284 10be bc54 f2bd
000003f0: 0a80 083d 2417 0e3e 601a ce3d 7c8c 3e3e
-0.079290114 0.14698088 0.21347567 0.061379906 0.0131376 -0.048359413 -0.09056923 -0.12580873
-0.09774591 0.19115512 0.1527847 -0.1881969 -0.18266462 -0.067921214 -0.1141 0.1554929
0.13830559 -0.0336828 0.014865952 0.010094332 0.12931314 -0.2497191 -0.16749333 0.03682985
-0.13652758 0.080738395 0.06319128 -0.17828189 -0.15378903 -0.11430019 0.23646769 -0.0030962534
0.044182513 0.11418874 0.06855166 0.063735425 -0.12444967 -0.0026648631 0.15701866 -0.15816362
0.18687358 0.1783966 -0.008823259 0.12743182 0.04778472 0.055622917 -0.15965098 -0.01322156
0.039506402 0.024038523 -0.0028604048 0.07871507 -0.064271584 -0.043090437 0.05263666 -0.010821821
0.1908387 0.13859579 0.14448966 -0.08243038 -0.15322316 0.058517978 -0.09216643 -0.12272905
-0.05692123 -0.004306138 0.21916884 0.024773458 0.1251213 -0.13063402 -0.025237214 -0.03973001
0.028654005 -0.028249502 0.14312917 -0.039358668 0.1645262 -0.061694838 -0.13332187 0.25342348
-0.08544709 0.022811009 -0.17323457 0.12717947 -0.26105085 0.11853887 -0.11861616 0.15518853
-0.05034397 -0.094064295 0.22033286 -0.08153697 -0.04542983 0.13185565 -0.031585563 0.093623646
-0.18078126 -0.23941338 0.1337585 0.12301779 -0.17683545 -0.20282744 -0.16144486 0.118802086
-0.23468141 0.21418023 -0.11361085 0.12909555 0.20141532 -0.009483817 -0.22121973 0.018069845
-0.037455667 0.11920846 0.23131122 0.024611572 0.099704266 -0.025636302 0.039165825 -0.033862606
-0.18384726 -0.023811568 0.18950972 0.07614928 -0.07736169 0.18763062 -0.07997138 0.024767604
-0.0073384056 -0.13139713 -0.15466514 0.005661266 -0.11280979 -0.1567935 0.16478172 -0.15049586
0.121515185 0.01963511 -0.11013974 -0.1813712 -0.15136753 0.12536077 -0.25563928 -0.0040770043
0.17691149 -0.20413035 0.17284244 -0.2014377 0.0787614 -0.28116977 0.0748878 -0.08917889
0.20031506 0.2477097 0.040123597 -0.16045883 -0.19293316 -0.061545257 0.020228751 -0.16696897
0.06905831 0.029322028 -0.2639807 -0.059979647 0.043544386 -0.17526163 0.20638329 -0.0780621
0.2233238 0.014195406 0.10368719 -0.15504189 0.0893138 0.06743501 0.1612868 0.16697936
0.16278741 -0.037701473 0.050737515 0.110160545 0.2303567 -0.1476424 -0.053296007 -0.1816352
0.020191249 0.14329275 -0.1265493 -0.06485066 0.080572926 -0.03590561 -0.1574737 0.20995775
0.136417 -0.1417232 -0.24759938 0.07978766 -0.084249996 -0.1073251 0.06863386 0.17559646
-0.20151588 0.014343078 -0.14501089 0.09701171 -0.16100402 0.024651447 0.049085442 -0.10443885
-0.1035027 0.1304628 0.03707629 -0.045189817 -0.10817568 0.039866526 0.023728669 0.08571016
-0.02900254 0.07185934 -0.17926724 -0.11026969 -0.17569457 0.11955594 -0.16669703 -0.0734715
-0.16232702 -0.04227008 0.07072817 0.07907381 0.05890488 -0.15236296 0.04388483 -0.15845744
-0.08240672 -0.027866608 0.18451287 -0.08114186 -0.24049266 -0.21932165 -0.23832375 0.004595336
-0.050546546 0.18737325 0.013297415 -0.17023748 -0.079240516 -0.048329357 -0.0013197238 -0.2168634
0.15643318 0.00043512785 -0.14113119 -0.11832568 0.033325233 0.13876015 0.100636244 0.18608278
